model/model_ID2_score_51.pth (torch, 17995 bytes, 4 tensors)

linear1.weight f4 [256, 11]
0	0x3e901e8d	0.28148308
1	0x3d8dfa17	0.069324665
2	0x3dc83c2b	0.09777101
3	0xbc449c54	-0.012000162
4	0xbe8b635c	-0.27224243
5	0x3e84a8ec	0.25910127
6	0xbe84395a	-0.25825006
7	0xbe8c6ec2	-0.27428252
8	0x3e823c31	0.25436547
9	0xbe9f5dec	-0.31126344
10	0xbe95ef9d	-0.29284373
11	0xbe9b7321	-0.30361274
12	0x3efa97b2	0.4894386
13	0xbe3c9ce6	-0.18419227
14	0x3dce4882	0.100724235
15	0x3e8ebbd3	0.27877674
16	0xbea72e66	-0.32652587
17	0xbe24f3dc	-0.1610865
18	0xbe5e4707	-0.21706782
19	0x3ee60475	0.44925275
20	0xbd732442	-0.05936075
21	0xbe4a56db	-0.19759695
22	0xbd643a82	-0.05571986
23	0x3f2264dd	0.63435155
24	0xbf100c78	-0.56269026
25	0xbe387bfa	-0.18016043
26	0x3e0a372a	0.13497606
27	0x3c879b78	0.016553625
28	0x3d69b588	0.057057887
29	0x3ea7a341	0.3274174
30	0x3e7ca796	0.24673304
31	0x3ea5a6e8	0.32353902
32	0xbd89d39c	-0.067298144
33	0x3def1265	0.1167343
34	0x3ecb04b5	0.3965203
35	0x3e35224a	0.17688861
36	0x3dc2035f	0.09473299
37	0xbd969b9d	-0.073539
38	0x3d69c09f	0.057068463
39	0xbcd6e2e9	-0.026231246
40	0x3e82dfe6	0.25561446
41	0x3e88a467	0.2668793
42	0x3e21cc93	0.15800695
43	0x3e8fb7ec	0.2807001
44	0x3e2a1091	0.16607882
45	0x3e8884db	0.2666386
46	0x3f1fd687	0.6243672
47	0x3cd3880b	0.025821706
48	0xbdda5fa0	-0.1066277
49	0x3dd20db9	0.10256524
50	0x3badc103	0.00530255
51	0x3c08225e	0.008308975
52	0x3da3ac85	0.0799189
53	0x3ece9265	0.40346065
54	0x3ec24259	0.37941244
55	0xbe8d29ba	-0.27570897
56	0x3d298a2e	0.041391544
57	0x3ee8e38b	0.45486102
58	0xbe835427	-0.2565014
59	0xbe6f5155	-0.2337087
60	0x3e6b0618	0.22951543
61	0xbd104990	-0.035226405
62	0xbe22b518	-0.15889394
63	0x3d65094d	0.055917073
64	0x3e7e39f3	0.24826793
65	0xbe5bcc2c	-0.21464604
66	0x3bf86339	0.0075801876
67	0xbda1b1fd	-0.07895277
68	0xbd9eedfe	-0.07760237
69	0x3e7a36f3	0.24435024
70	0x3e3fa06d	0.18713541
71	0x3e0aa4ec	0.13539475
72	0xbd866955	-0.06563059
73	0xbd816d3b	-0.06319662
74	0x3d9595ff	0.07304
75	0xbdf45e0e	-0.11932002
76	0xbc40b8df	-0.011762827
77	0x3efe4485	0.4966165
78	0xbd2e0c0d	-0.04249196
79	0xbd08e45f	-0.033420917
80	0x3d8edd5b	0.06975814
81	0x3e204711	0.1565211
82	0xbeba68c1	-0.36408046
83	0xbdf12833	-0.117752455
84	0xbe7cddbe	-0.24693963
85	0xbeac4adf	-0.33650872
86	0x3e6816be	0.22664925
87	0xb951f105	-0.0002002158
88	0xbe836d95	-0.25669542
89	0x3aea25e9	0.0017864081
90	0xbe534564	-0.20631939
91	0xbe1aa670	-0.15102553
92	0x3cd3a464	0.025835223
93	0xbe4959d3	-0.19663171
94	0xbe4cf0c6	-0.20013723
95	0xbe8e7b84	-0.2782861
96	0xba912717	-0.0011074272
97	0xbdca43f4	-0.09876242
98	0xbd8812cc	-0.0664421
99	0xbf1b929b	-0.6077058
100	0x3f26918e	0.6506585
101	0xbdb31736	-0.087446615
102	0x3e34f1e2	0.17670396
103	0x3eacf2f1	0.337791
104	0xbda1f38a	-0.079077795
105	0x3ea046c9	0.31304005
106	0x3dfec0fa	0.12439151
107	0x3cb09d7d	0.021559471
108	0xbe8769cd	-0.26447907
109	0x3d7fec1b	0.062481027
110	0xbed29c47	-0.41134855
111	0xbea0100f	-0.31262252
112	0x3f2ba0bc	0.67042136
113	0x3e894dfb	0.26817307
114	0x3e5fdf49	0.2186252
115	0xbc9f07cd	-0.0194129
116	0xbe5d7aec	-0.21628922
117	0xbdc2da0f	-0.095142476
118	0xbe5903f4	-0.21192914
119	0xbe063350	-0.13105512
120	0xbef82c4b	-0.48471293
121	0xbedb3252	-0.4281183
122	0xbe9c8eec	-0.3057779
123	0x3e7505ec	0.2392804
124	0x3e1b3bca	0.15159526
125	0x3e85f9fd	0.26167288
126	0xbd89ac61	-0.06722332
127	0xbe4d6eea	-0.20061842
128	0xbe072037	-0.13195883
129	0xbda59f18	-0.08086985
130	0xbe86c681	-0.2632332
131	0x3c0bd705	0.008535151
132	0x3e412296	0.1886085
133	0xbe825f9b	-0.25463566
134	0xbe85d6da	-0.2614048
135	0xbe1b32d6	-0.15156111
136	0xbe8775a6	-0.26456946
137	0xbead0bf2	-0.33798176
138	0x3ed339b4	0.41254961
139	0xbea9190e	-0.33026928
140	0xbe5928f6	-0.21207032
141	0xbd811943	-0.063036464
142	0x3ec88f05	0.39171615
143	0x3d0f1f6b	0.034942072
144	0x3f1aa210	0.6040354
145	0x3f0e5ba4	0.5560858
146	0x3d01ad09	0.03165916
147	0xbe30d563	-0.172689
148	0x3e52055b	0.20509855
149	0xbdf0a878	-0.11750883
150	0x3d15f74b	0.03661279
151	0x3e8b5c58	0.2721889
152	0x3e471794	0.19442588
153	0x3eb9aca4	0.36264527
154	0x3e549d0d	0.20763035
155	0xbe0febae	-0.14054748
156	0x3f159b44	0.5844004
157	0xbe5479d2	-0.20749596
158	0xbdaa8988	-0.08327013
159	0x3d2084c2	0.039189108
160	0xbe02a777	-0.12759195
161	0x3bcaee91	0.00619299
162	0x3dc76344	0.0973573
163	0x3de5e11a	0.11224575
164	0x3df35265	0.1188095
165	0xbeb4a6e8	-0.3528359
166	0x3ed9b037	0.42517254
167	0xbdabd1f5	-0.083896555
168	0x3e39c274	0.18140584
169	0xbe949c4e	-0.290255
170	0x3eae242e	0.34011978
171	0xbeb4ddf7	-0.35325596
172	0x3ce45571	0.027872773
173	0xbf00b9a0	-0.5028324
174	0xbd23fca6	-0.040035866
175	0xbf08aac3	-0.5338556
176	0x3ea6d04a	0.32580787
177	0x3e182172	0.14856508
178	0x3d1d72c1	0.038439516
179	0xbdc386db	-0.09547206
180	0x3c90b6c6	0.017665278
181	0x3ccbf691	0.024897845
182	0x3c85610b	0.016281625
183	0x3e8c7fbd	0.27441207
184	0x3e77d815	0.24203523
185	0x3f0761b0	0.52883434
186	0x3e66c2f7	0.2253531
187	0x3e7d3e8a	0.24730888
188	0xbed94ce5	-0.42441478
189	0x3edb76db	0.42864117
190	0xbe1ae287	-0.15125476
191	0xbdf82b02	-0.12117578
192	0xbcf08948	-0.029362336
193	0xbdc8d7e1	-0.09806801
194	0x3d98f23d	0.07468078
195	0x3de7f1ee	0.11325441
196	0x3ea636b6	0.32463616
197	0x3e21283c	0.15738004
198	0x3e8c95f5	0.27458158
199	0xbef20a17	-0.47273323
200	0x3e15839d	0.14600988
201	0x3e84f877	0.25970814
202	0x3eade751	0.33965543
203	0xbebd353c	-0.36954677
204	0xbeca06c5	-0.3945829
205	0xbe9b9ed3	-0.3039461
206	0xbec847a1	-0.3911715
207	0x3eab9c01	0.3351746
208	0x3eb42426	0.3518383
209	0x3e443696	0.19161448
210	0x3f08a9a4	0.5338385
211	0xbe3b4971	-0.18289734
212	0x3dca16b9	0.09867615
213	0x3eb18e92	0.34679085
214	0x3e064980	0.13113976
215	0xbf061353	-0.52373236
216	0xbdb65fd0	-0.089049935
217	0xbeccda25	-0.4001018
218	0xbdcf7574	-0.10129824
219	0x3ef12250	0.4709649
220	0xbeee321a	-0.465226
221	0x3f1a7f69	0.6035066
222	0xbd66a528	-0.05630985
223	0x3e8ad1b5	0.2711312
224	0x3ec48ce0	0.3838873
225	0x3e5c0e06	0.21489725
226	0xbe848876	-0.2588536
227	0x3e9c6420	0.3054514
228	0x3e193f4b	0.1496555
229	0x3d32406b	0.043518465
230	0xbeb2eeef	-0.34947917
231	0xbdcd905f	-0.10037302
232	0xbd63ae1f	-0.055585977
233	0x3f276582	0.65389264
234	0x3e7e808a	0.24853721
235	0xbe6bfd82	-0.23045924
236	0xbe47f829	-0.1952826
237	0x3e3c6a1b	0.18399851
238	0x3dffa6bd	0.12482975
239	0xbe933e04	-0.28758252
240	0xbe6ad013	-0.22930937
241	0x3d38b4b5	0.04509421
242	0x3f374b6d	0.71599466
243	0xbe007c2b	-0.12547366
244	0x3d5dfe98	0.054197878
245	0xbea8e235	-0.32985082
246	0xbe3f3e9e	-0.1867623
247	0x3d70e68b	0.058813613
248	0xbe93314b	-0.28748545
249	0x3c5ed194	0.013599772
250	0x3e795333	0.24348144
251	0xbb5d47c5	-0.0033764702
252	0xbdc3a318	-0.09552592
253	0x3e8cb104	0.27478802
254	0xbe85f023	-0.26159772
255	0x3f0d876b	0.55284756

linear1.bias f4 [256]
0	0xbd4b7c4c	-0.049679086
1	0xbd9de6bd	-0.077100255
2	0xbd8ea423	-0.069649
3	0xbe6a007a	-0.22851744
4	0xbd4db7e6	-0.050224207
5	0xbd6b596d	-0.05745833
6	0xbeac0311	-0.3359609
7	0x3e03577b	0.1282634
8	0xbe2917e3	-0.16513018
9	0x3dd5be09	0.10436637
10	0x3eb2cc8b	0.3492168
11	0x3f230aa2	0.636881
12	0xbd4898db	-0.0489739
13	0xbe507334	-0.20356447
14	0x3da91cc8	0.08257443
15	0x3ee31198	0.4434936
16	0xbe8a7437	-0.2704179
17	0x3c2528ae	0.0100805
18	0x3c9df084	0.019279726
19	0x3d2a67fd	0.041603077
20	0xbd95716c	-0.07297024
21	0x3e01be02	0.12670138
22	0xbde21fc0	-0.11041212
23	0x38b8d024	8.812573e-05
24	0xbe507ade	-0.2035937
25	0xbd9469f6	-0.07246773
26	0x3e177ca5	0.14793642
27	0xbdb806a6	-0.08985643
28	0xbd57bbbe	-0.05266928
29	0xbe202c49	-0.15641893
30	0x3dd1682a	0.10224946
31	0x3d017221	0.031602982
32	0xbdfa14f8	-0.12211031
33	0x3d2d76d1	0.04234964
34	0x3d580ff4	0.05274959
35	0xbb9a2add	-0.0047048167
36	0xbe15bc03	-0.14622502
37	0xbe397276	-0.1811007
38	0xbd8bad83	-0.06820204
39	0x3df0a40c	0.117500395
40	0xbe0c65d9	-0.13710727
41	0xbe51cc2b	-0.2048804
42	0xbe35d59e	-0.1775727
43	0x3dea4833	0.11439552
44	0xbde78c57	-0.113060646
45	0xbd9159a9	-0.070971794
46	0xbd509c5a	-0.05093036
47	0x3e05a54d	0.13051338
48	0x3d079f33	0.03311081
49	0x3dc0f53f	0.09421777
50	0xbdbef577	-0.093241625
51	0xbe5b9e7f	-0.2144718
52	0x3e218ec2	0.15777114
53	0xbde351b6	-0.110995695
54	0xbe51cde3	-0.20488696
55	0xbeaf9f36	-0.34301156
56	0xbe21d5eb	-0.1580426
57	0xbddb582d	-0.107101776
58	0x3eed0c2a	0.46298343
59	0xbdb51318	-0.088415325
60	0xbe9e7e16	-0.3095557
61	0x3e0f781b	0.1401066
62	0xbe82d624	-0.25554
63	0xbdb6755c	-0.08909103
64	0x3df61db7	0.120173864
65	0xbec42bc0	-0.3831463
66	0x3db8eb1e	0.0902922
67	0xbd50be66	-0.050962828
68	0xbdad0ac8	-0.08449322
69	0x3e841746	0.25799006
70	0xbd30c766	-0.04315891
71	0x3ca73720	0.020412028
72	0x3ea45e2d	0.321031
73	0xbe64cae6	-0.22343025
74	0xbe817e1e	-0.25291532
75	0x3e415426	0.18879756
76	0x3e1c994d	0.15292855
77	0xbdb10750	-0.08643973
78	0x3d1a57f7	0.037681546
79	0xbe0fc4a0	-0.1403985
80	0xbe1c29c8	-0.15250313
81	0x3dba16d6	0.09086387
82	0xbe08f9a6	-0.13376483
83	0xbe3ca46b	-0.18422095
84	0xbe7c84a5	-0.24659975
85	0x3d824e9d	0.063626505
86	0x3ddfa50e	0.109201536
87	0xbe7a8c32	-0.24467543
88	0xbec07fe5	-0.37597576
89	0xbec94b67	-0.3931534
90	0xbe11f9b0	-0.14255404
91	0x3ecc4853	0.3989893
92	0xbe8ab81c	-0.2709359
93	0xbe221b13	-0.1583064
94	0xbc370be1	-0.011172266
95	0xbcc4a061	-0.024002256
96	0x3c1207d7	0.008913002
97	0x3d5bfa19	0.05370531
98	0xbd96184e	-0.073288545
99	0x3cf995c8	0.03046693
100	0xbe1003e7	-0.14063989
101	0x3da845b0	0.08216417
102	0xbd66119f	-0.05616915
103	0xbe673a76	-0.22580895
104	0x3db0edfd	0.08639143
105	0xbda6b2d2	-0.08139576
106	0x3c84ee1a	0.016226817
107	0xbe8b9a2c	-0.2726606
108	0xbe201a20	-0.15634966
109	0x3ddc0146	0.107424304
110	0xbe13e470	-0.1444261
111	0x3e349235	0.17633899
112	0x3ea70736	0.3262269
113	0x3d4fc276	0.05072256
114	0xbe2c2be9	-0.16813625
115	0x3d1b96f6	0.037985764
116	0x3e250bf1	0.16117837
117	0x3ee8914b	0.4542335
118	0x3e55fe2f	0.20897745
119	0xbe5d2295	-0.21595223
120	0xbc3a54a1	-0.011372716
121	0x3c59a5c8	0.013284154
122	0x3d346ea3	0.044050824
123	0xbe8ad582	-0.2711602
124	0xbe3f45b6	-0.18678936
125	0x3d63eba0	0.05564463
126	0x3df1b451	0.11801971
127	0xbe737589	-0.23775305
128	0xbdbde72f	-0.092726104
129	0x3e815227	0.2525799
130	0xbe6049fe	-0.21903226
131	0x3e9b40d8	0.3032291
132	0xbe2bde82	-0.16784099
133	0x3efdd4fa	0.4957655
134	0xbe293ae1	-0.16526367
135	0x3d9ca5ec	0.076488346
136	0x3e0fd457	0.14045845
137	0x3e6fd960	0.23422766
138	0xbdc048f3	-0.09388914
139	0xbe27569d	-0.16341634
140	0x3df123d8	0.11774415
141	0x3d1be58a	0.038060702
142	0xbe4cb2c3	-0.19990067
143	0xbe8e6838	-0.27813888
144	0xbe652498	-0.2237724
145	0x3e1d7ff9	0.15380849
146	0x3cce492d	0.025181377
147	0xbe5edda7	-0.21764241
148	0x3b4d01b8	0.0031281542
149	0xbe5fea0f	-0.2186663
150	0xbe232d0c	-0.15935153
151	0xbdf16b8f	-0.11788093
152	0xbd544c86	-0.05183079
153	0xbcca57f0	-0.024700135
154	0x3d42ebc7	0.047588136
155	0xbc815518	-0.015787646
156	0xbe5c6060	-0.21521139
157	0xbbf85327	-0.007578272
158	0xbd4c0379	-0.049808
159	0xbdd1b858	-0.10240239
160	0xbe479bf5	-0.19493087
161	0x3ea2b7ee	0.31780952
162	0xbcfc30ab	-0.030784925
163	0x3dc9841b	0.0983965
164	0xbdcacbf1	-0.0990218
165	0x3e7497ef	0.23886083
166	0x3e91a787	0.28448126
167	0x3da5d895	0.0809795
168	0x3de302f5	0.110845484
169	0x3e17e166	0.14832076
170	0x3e1f33dd	0.15547128
171	0xbe96e46e	-0.29471153
172	0xbd7ffeb3	-0.06249876
173	0xbe583315	-0.21113236
174	0x3ea53501	0.32267
175	0xbde236be	-0.110455975
176	0xbdd37efb	-0.10326954
177	0xbecade3a	-0.3962267
178	0x3deb2747	0.11482101
179	0xbe775021	-0.2415166
180	0xbe1b51d6	-0.15167937
181	0x3ea36a5e	0.3191709
182	0xbc41e4ca	-0.011834333
183	0xbe3b114d	-0.18268318
184	0x3dbd6859	0.09248418
185	0xbe73cd10	-0.23808694
186	0xbd3dec92	-0.04636819
187	0xbde1df9b	-0.110289775
188	0xbe91c632	-0.28471524
189	0xbe880985	-0.26569763
190	0xbeb11b9d	-0.3459138
191	0x3ee5a378	0.4485128
192	0x3e546968	0.20743334
193	0x3cac2998	0.021015927
194	0xbe18cee3	-0.14922671
195	0xbd6cea4e	-0.057840638
196	0xbe160dd5	-0.14653714
197	0x3ebb23c0	0.36550713
198	0xbdeb0979	-0.11476416
199	0x3e183790	0.14864945
200	0xbec0e584	-0.37675107
201	0xbe1e2504	-0.15443808
202	0xbd2ed63d	-0.042684782
203	0xbb98a8b3	-0.0046587824
204	0xbe654e3f	-0.2239313
205	0xbe59f26f	-0.21283887
206	0xbd9d8e9d	-0.07693217
207	0x3d41c421	0.047306184
208	0xbea8f965	-0.33002773
209	0xbebf8bf1	-0.37411454
210	0x3cdc7d1c	0.026915126
211	0xbd0a6fab	-0.0337979
212	0x3e626ec9	0.22112574
213	0xbe446b69	-0.19181599
214	0xbdec1cdd	-0.11528943
215	0x3ddeec41	0.108849056
216	0xbe4a0734	-0.1972931
217	0x3e76d2ef	0.24103902
218	0xbe067eb2	-0.13134268
219	0xbd78618d	-0.060639907
220	0xbe22977e	-0.15878102
221	0xbdbe0b9c	-0.09279558
222	0xbe644579	-0.22292127
223	0x3d459e45	0.04824664
224	0x3e6d7107	0.23187648
225	0xbe021d03	-0.1270638
226	0x3e072358	0.13197076
227	0xbe73df06	-0.23815545
228	0x3ec82ed2	0.3909822
229	0x3e302b22	0.17203954
230	0xbd40242a	-0.04690949
231	0xbe1133c8	-0.14179909
232	0xbe8d72a9	-0.2762654
233	0xbe59a4e6	-0.2125431
234	0xbe5e890f	-0.21731971
235	0xbd6f07f8	-0.05835721
236	0xbe5e3ef5	-0.21703704
237	0x3d09f587	0.03368142
238	0x3ea2e178	0.31812644
239	0x3e08477b	0.13308518
240	0x3da3e784	0.080031425
241	0xbc2f1c49	-0.010687896
242	0x3a015a32	0.00049343996
243	0xbe8be1b1	-0.27320626
244	0xbd679786	-0.05654099
245	0x3e63a2d1	0.22230078
246	0x3d9e9311	0.077428944
247	0x3ea3a3d0	0.31960917
248	0xbd97f67d	-0.07420061
249	0xbe138835	-0.14407428
250	0xbe63143b	-0.22175686
251	0xbec89dd4	-0.39182913
252	0xbeab59f3	-0.33467063
253	0xbe92d98d	-0.28681603
254	0x3c2ea1cd	0.0106586935
255	0x3d14d68e	0.036337428

linear2.weight f4 [3, 256]
0	0xbd8b5895	-0.06804005
1	0x3e633ce6	0.221912
2	0xbd36865b	-0.044561725
3	0xbdcee9b2	-0.101031676
4	0xbd9962a0	-0.07489514
5	0x3e06415d	0.13110872
6	0x3bd3033f	0.006439596
7	0xbe9e5b6b	-0.3092912
8	0xbcaadcd0	-0.020857245
9	0x3eb0b24e	0.34511036
10	0x3ebc19d5	0.36738458
11	0x3ed2611f	0.41089723
12	0x3eac0114	0.33594573
13	0xbe0b5697	-0.1360725
14	0xbbdfbbaf	-0.0068277935
15	0x3ed4f183	0.4159051
16	0xbe4b0ec3	-0.1982985
17	0xbe026e7f	-0.12737463
18	0xbeecaf1a	-0.46227342
19	0xbebdc4cc	-0.37064207
20	0x3eb58ea8	0.354604
21	0x3e4e89b5	0.20169719
22	0xbe92ba58	-0.28657794
23	0xbc742d33	-0.014903354
24	0xbe9ed7b9	-0.31023958
25	0xbe9194ad	-0.28433743
26	0x3e399036	0.18121418
27	0xbe0ee154	-0.13953143
28	0xbe0a69e3	-0.13516955
29	0x3ebcfb7b	0.36910614
30	0x3debdef4	0.11517134
31	0x3dc23d7c	0.094843835
32	0x3d5ca55d	0.05386864
33	0xbd04560a	-0.032308616
34	0x3debb30e	0.11508761
35	0xbcb6e5ce	-0.022326376
36	0xbe823769	-0.254329
37	0x3d93b40e	0.07212077
38	0x3e99d4c8	0.30045152
39	0x3ea9ad65	0.33140102
40	0xbdf61ed9	-0.120176025
41	0xbe2b8b71	-0.16752411
42	0xbed5f0d8	-0.41785312
43	0xbeb8356d	-0.3597826
44	0x3df29bef	0.11846148
45	0xbd5e645d	-0.054294933
46	0x3ef95707	0.4869921
47	0x3e25378f	0.16134475
48	0x3d8aeb94	0.06783214
49	0x3e43960e	0.1910021
50	0xbeeab926	-0.45844382
51	0xbeb20049	-0.34765843
52	0xbf0a7ea1	-0.5409947
53	0xbd18fb00	-0.037348747
54	0xbe4f0a3f	-0.20218752
55	0xbdbbf50e	-0.091776
56	0xbe9b91a1	-0.30384544
57	0xbe250b1a	-0.16117516
58	0x3ea95285	0.3307077
59	0xbe4f9076	-0.20269951
60	0xbc6b541c	-0.014363315
61	0x3e013383	0.12617306
62	0xbcd9d11b	-0.026588967
63	0xbde9ddec	-0.11419281
64	0x3e81f04f	0.25378653
65	0x3ccb4e49	0.024817603
66	0x3dd6a2c9	0.104802676
67	0x3d42cffb	0.047561627
68	0xbe27021f	-0.16309403
69	0x3e63caf5	0.2224539
70	0xbf0c6803	-0.5484621
71	0x3e9970ab	0.2996877
72	0x3e20f131	0.15717007
73	0xbc511960	-0.0127623975
74	0xbcbb9ea9	-0.022902803
75	0x3de5fe40	0.11230135
76	0x3e8b040e	0.2715153
77	0xbed7f277	-0.42177173
78	0xbe74b58c	-0.2389738
79	0xbed990c6	-0.42493266
80	0xbdd3677f	-0.10322475
81	0xbf0a063a	-0.5391575
82	0x382fe37e	4.193512e-05
83	0xbe1db742	-0.15401939
84	0xbde18ce4	-0.11013201
85	0xbead9c17	-0.3390815
86	0x3df91614	0.12162414
87	0x3cfb8d43	0.030707007
88	0xbd939923	-0.07206943
89	0xbe98c725	-0.29839435
90	0xbe4b16f3	-0.19832973
91	0x3eb73722	0.3578425
92	0xbbef0df3	-0.007295364
93	0xbd881ef6	-0.0664653
94	0x3edea8bd	0.43488112
95	0xbc056750	-0.008142307
96	0x3e46676c	0.1937539
97	0xbefe7738	-0.49700332
98	0x3dfefd9e	0.124507174
99	0xbd84d41f	-0.064857714
100	0x3dacf048	0.084442675
101	0x3eea49f8	0.4575956
102	0xbd2bc983	-0.041940223
103	0xbc8e2ff0	-0.017356843
104	0xbc9abeb4	-0.018889762
105	0x3e9b9b2f	0.30391833
106	0x3edb9ab0	0.42891455
107	0xbe170a86	-0.14750108
108	0x3e1337f2	0.1437681
109	0xbebdb423	-0.37051496
110	0xbe63e8f6	-0.22256836
111	0x3dc3d107	0.09561353
112	0x3ed16888	0.40900064
113	0x3e0d5399	0.13801421
114	0xbee6fd4f	-0.45115134
115	0x3d486172	0.048921056
116	0x3e11bb01	0.14231493
117	0x3dd20a92	0.102559224
118	0x3e3fcd43	0.18730645
119	0xbd5789c4	-0.052621618
120	0x3d813c18	0.0631029
121	0xbd63ebc9	-0.055644784
122	0x3ec06729	0.37578705
123	0xbc67bec0	-0.014144599
124	0xbe101377	-0.14069925
125	0xbec4bbf9	-0.38424662
126	0x3e7c8f1a	0.24663964
127	0xbe7f6ba9	-0.24943413
128	0xbeeae1c9	-0.45875385
129	0x3ca51cf7	0.020155413
130	0xbea46c8a	-0.3211406
131	0x3e93aaa8	0.28841138
132	0xbd610161	-0.054932956
133	0x3ece19c0	0.4025402
134	0xbe9ec297	-0.31007835
135	0xbd0a6756	-0.033789955
136	0xbf732c17	-0.9498915
137	0x3efed359	0.4977062
138	0xbe1dbd3c	-0.15404218
139	0xbe0be61c	-0.13661999
140	0x3dc9b34f	0.098486535
141	0x3c4f0d9e	0.012637524
142	0xbe4b860c	-0.19875354
143	0xbe5d2515	-0.21596177
144	0xbe2d7cc7	-0.1694213
145	0x3e38d8ab	0.18051402
146	0x3eaf7638	0.3426988
147	0xbd2280ae	-0.0396735
148	0x3eb5b41a	0.3548897
149	0xbe552d0e	-0.20817968
150	0xbe149e0d	-0.14513417
151	0xbe0f47a6	-0.13992175
152	0x3ec1c08a	0.37842208
153	0xbe6d7477	-0.23188959
154	0xbed293fe	-0.41128534
155	0xbea9dd85	-0.33176818
156	0xbf1a0458	-0.6016288
157	0x3e5546b4	0.20827752
158	0xbf241b97	-0.641046
159	0x3e4cb450	0.19990659
160	0xbdf6af24	-0.12045124
161	0x3eb40176	0.35157365
162	0xbe9a7f0e	-0.3017506
163	0x3e2bfab4	0.16794854
164	0xbdf76d45	-0.120813884
165	0x3dad1599	0.08451385
166	0x3d8bd29f	0.06827282
167	0xbede4b6e	-0.43416923
168	0x3e4555b6	0.19270977
169	0xbebc06b7	-0.36723873
170	0x3ee5c5e8	0.44877553
171	0x3cee4872	0.029087279
172	0xbefb1f84	-0.49047482
173	0xbe236916	-0.15958056
174	0x3eb4e6fd	0.3533248
175	0xbe1fd2e3	-0.1560779
176	0x3bfb8990	0.007676311
177	0xbcc8acd7	-0.024496479
178	0x3e8148cf	0.2525086
179	0x3db37e97	0.087643795
180	0xbeb1dafa	-0.34737378
181	0x3eb085b6	0.34477013
182	0xbd46a1db	-0.0484942
183	0xbcadb454	-0.021204151
184	0x3e7c2c9c	0.24626392
185	0xbc0da296	-0.008644721
186	0x3d90b03a	0.070648625
187	0x3dbb9693	0.09159579
188	0xbe3fc36a	-0.18726888
189	0xbd0c125d	-0.0341972
190	0xbddc90e5	-0.10769824
191	0x3ec0685b	0.37579617
192	0xbe89ab99	-0.2688873
193	0x3e344cb2	0.17607382
194	0xbe5fdfc3	-0.21862702
195	0x3c54b944	0.012983624
196	0xbda44d56	-0.08022563
197	0x3e54bf2d	0.20776053
198	0xbde487df	-0.11158728
199	0x3dd79795	0.10526959
200	0xbe5fcc39	-0.21855249
201	0xbe73f011	-0.23822047
202	0x3ea3810a	0.31934386
203	0xbea74a86	-0.32674044
204	0xbe091f3c	-0.13390821
205	0x3d94e824	0.0727084
206	0xbdc0ca80	-0.09413624
207	0xbddbe348	-0.1073671
208	0xbdd629e3	-0.10457208
209	0xbe40fcaa	-0.18846384
210	0xbe693f42	-0.22778037
211	0xbea63f97	-0.3247039
212	0x3ec60cee	0.3868174
213	0xbe0ed0c8	-0.13946831
214	0xbd69b236	-0.05705472
215	0x3ea07a58	0.3134334
216	0xbe339d9c	-0.17540592
217	0x3d4d3c0d	0.050106097
218	0xbe0a7251	-0.13520171
219	0x3d9ce9aa	0.076617554
220	0xbc86f82f	-0.016475765
221	0xbe8f6456	-0.28006238
222	0xbe17f4dc	-0.148395
223	0xbc887d05	-0.016661176
224	0x3cd57595	0.026057044
225	0xbe2ba5f2	-0.16762522
226	0xbe033a90	-0.12815309
227	0x3c3d30be	0.011547266
228	0x3f0a61e4	0.5405562
229	0xbc46cdcd	-0.012134028
230	0xbec12ffc	-0.37731922
231	0x3d685b2e	0.05672758
232	0xbcb24226	-0.021760058
233	0xbed61008	-0.41809106
234	0xbece55cc	-0.40299833
235	0xbae6dd4b	-0.0017613558
236	0xbe2b6e6b	-0.1674134
237	0x3e7b3f29	0.24535812
238	0x3e85c230	0.26124716
239	0x3eb343fc	0.35012805
240	0xbb57b6ce	-0.0032915357
241	0xbe80bb07	-0.2514269
242	0xbdccc0ae	-0.09997688
243	0xbebfd284	-0.37465298
244	0xbdb99e18	-0.09063357
245	0x3ece5952	0.4030252
246	0x3e61bf56	0.22045645
247	0x3e5faec2	0.21844009
248	0xbe94a06c	-0.29028642
249	0x3eb04818	0.34430003
250	0xbd30a78a	-0.043128528
251	0xbc962152	-0.018326435
252	0xbea3df1c	-0.32006156
253	0x3cd0886c	0.025455676
254	0xbebe8adf	-0.37215325
255	0x3e4e4495	0.2014335

linear2.bias f4 [3]
0	0x3e5643a2	0.20924237
1	0x3c899eb2	0.016799305
2	0x3d7b77fe	0.06139373
