model/model_ID3_score_53.pth (torch, 17995 bytes, 4 tensors)

linear1.weight f4 [256, 11]
-0.30482647 0.03529501 0.019898389 0.13695668 -0.34112826 -0.1351864 0.41965085 -0.23816691
0.37852615 0.16639099 -0.56646186 -0.4721211 0.11573894 -0.03848503 -0.54205483 -0.24222845
0.41164404 -0.4529145 -0.34718522 -0.6280523 0.3652849 -0.53325486 -0.20750427 0.030290635
0.23592296 0.17720896 -0.42496493 -0.42842114 -0.113881394 -0.36165535 0.2128328 0.34026706
-0.27068564 -0.081607774 -0.06450021 0.63818544 0.03929547 0.09233363 0.31418946 -0.3017192
-0.3043932 0.3201425 -0.09701873 -0.3012583 -0.34639615 0.01684075 -0.5264483 -0.09776559
-0.5175274 0.30698428 -0.3404522 -0.35665706 -0.1493962 0.39719188 -0.31953618 -0.44927013
0.2973558 0.1204525 0.26604933 -0.4023122 -0.4272121 0.2343208 0.37535894 -0.2021431
-0.27132863 0.38261414 -0.082266204 0.44392705 -0.0031247425 -0.24732862 -0.17297882 -0.38981318
-0.04136705 -0.13986108 0.014998274 -0.23997883 0.05676219 -0.29070956 -0.07232444 0.0061686602
-0.55346954 -0.2927733 0.28872237 0.20662518 0.29100856 0.037434146 -0.5960498 -0.46035686
-0.14369412 -0.496067 0.70647347 0.19544864 0.2245535 0.27292508 -0.015352784 0.0592158
-0.03217587 -0.10340529 -0.25520042 0.10105298 0.655108 0.18385649 -0.19927518 0.16138038
0.17697284 -0.044717517 0.5432914 0.20068426 0.32688487 0.4093285 0.062898636 0.661808
0.27556232 0.099055275 -0.31497738 0.12201398 0.08472885 -0.036431678 0.24574132 0.28392726
0.092706464 -0.2247514 -0.27614418 0.6062445 0.19191816 0.3553329 0.33237055 -0.13022262
0.106696285 0.0088061355 -0.19120385 -0.39002106 0.10684545 0.4240574 0.42619157 -0.09759027
-0.06090545 -0.09917143 -0.25548908 0.31707734 0.158083 0.22218893 0.4293098 -0.21574667
-0.0744788 0.049673542 0.28330222 -0.20784636 0.18586698 -0.2706089 -0.1852575 0.27468872
-0.533691 -0.3445581 -0.06083034 0.5844745 -0.25275505 -0.24273102 0.33738106 0.24484679
0.29301584 -0.4927189 -0.087068796 0.028991643 -0.23494253 0.2390664 0.113230765 0.43094468
-0.098185964 0.0872045 0.12463705 -0.14088595 0.23321556 0.24584277 -0.13115948 0.08819657
-0.15755276 0.54625255 0.3095579 -0.16172808 -0.06844039 0.19483073 0.13614702 -0.3321158
0.009281343 -0.1299652 0.042007346 0.17745502 0.551242 0.44974473 -0.08000078 -0.34197116
-0.08173525 0.018525941 -0.19517551 -0.018461097 0.14526594 -0.12434881 -0.013751168 0.40473303
0.3351284 0.09782409 0.0058842744 0.045317914 -0.01548958 0.2745248 0.25421154 0.27241617
0.20107381 0.5795316 0.010902643 -0.27172348 0.18320054 0.3873173 -0.30791184 -0.15873162
-0.012218143 -0.27462834 0.3946021 0.18380313 0.14090773 0.45618698 -0.088210635 0.31336483
-0.37392417 -0.08115567 -0.42060882 -0.2732245 0.3558358 0.18899857 0.45695496 -0.28951442
0.06531525 -0.30484545 -0.17655763 -0.3982552 0.3505807 -0.32671604 -0.33648273 -0.20453633
0.428066 -0.38456663 -0.15966067 0.0043823887 0.4831276 0.033144947 0.10755284 -0.5070078
-0.16441442 0.23094793 0.02311994 -0.34897444 -0.5608309 -0.32658648 0.048877332 0.363659
00000000: 3712 9cbe 8091 103d f201 a33c 5f3e 0c3e
00000010: 5da8 aebe 4e6e 0abe 7adc d63e 07e2 73be
00000020: 2ece c13e 6662 2a3e a503 11bf dbb9 f1be
00000030: 8a08 ed3d 7ba2 1dbd 1bc4 0abf bc0a 78be
00000040: 02c3 d23e 69e4 e7be 43c2 b1be 09c8 20bf
00000050: 9f06 bb3e 6483 08bf 007c 54be 1124 f83c
00000060: ca95 713e 4476 353e 0195 d9be 045a dbbe
00000070: a63a e9bd e42a b9be d7f0 593e 7c37 ae3e
00000080: 4f97 8abe fa21 a7bd b018 84bd 1f60 233f
00000090: 49f4 203d 6a19 bd3d 71dd a03e f07a 9abe
000000a0: 6dd9 9bbe b8e9 a33e c2b1 c6bd 873e 9abe
000000b0: d65a b1be 9df5 893c 51c5 06bf 5339 c8bd
000000c0: ad7c 04bf 0b2d 9d3e c04f aebe c19b b6be
000000d0: 51fb 18be bc5c cb3e 3f9a a3be bc06 e6be
000000e0: 053f 983e cdaf f63d 9e37 883e ddfb cdbe
000000f0: 8bbb dabe cbf1 6f3e 0c2f c03e 9afe 4ebe
00000100: 96eb 8abe 00e6 c33e 2f7b a8bd 684a e33e
00000110: 7bc8 4cbb b743 7dbe 5c21 31be 9895 c7be
00000120: 7f70 29bd be37 0fbe 52bb 753c 03bd 75be
00000130: 787f 683d e2d7 94be d61e 94bd 7922 ca3b
00000140: 2eb0 0dbf 62e6 95be 6bd3 933e 8d95 533e
00000150: 13ff 943e 8c54 193d b896 18bf e5b3 ebbe
00000160: 8d24 13be 7efc fdbe 72db 343f b023 483e
00000170: 5af1 653e d6bc 8b3e 3e8a 7bbc 448c 723d
00000180: d8ca 03bd 27c6 d3bd a1a9 82be ddf4 ce3d
00000190: 28b5 273f e044 3c3e cb0e 4cbe e640 253e
000001a0: 5e38 353e b729 37bd 2515 0b3f 2d80 4d3e
000001b0: 745d a73e 8193 d13e 00d1 803d 406c 293f
000001c0: 8116 8d3e 7edd ca3d b744 a1be 77e2 f93d
000001d0: 5286 ad3d 6239 15bd 9da3 7b3e ea5e 913e
000001e0: e3dc bd3d 3b25 66be c562 8dbe d732 1b3f
000001f0: 3286 443e 32ee b53e 792c aa3e 1459 05be
00000200: 9583 da3d 9c47 103c f1ca 43be d7b0 c7be
00000210: cad1 da3d 0d1e d93e c835 da3e 68dd c7bd
00000220: fe77 79bd 641a cbbd 77cf 82be f657 a23e
00000230: 83e0 213e 7f85 633e 7ece db3e b2ec 5cbe
00000240: 5788 98bd 7c76 4b3d fd0c 913e add5 54be
00000250: ea53 3e3e 408d 8abe 24b4 3dbe 00a4 8c3e
00000260: f99f 08bf eb69 b0be 3c29 79bd 1fa0 153f
00000270: 1c69 81be 7b8e 78be 36bd ac3e 1eb9 7a3e
00000280: 2c06 963e a745 fcbe 2051 b2bd e27f ed3c
00000290: c694 70be d3cd 743e 88e5 e73d c8a4 dc3e
000002a0: b915 c9bd 4698 b23d b641 ff3d 6844 10be
000002b0: 0fd0 6e3e 35be 7b3e ac4e 06be 67a0 b43d
000002c0: 8355 21be 35d7 0b3f 607e 9e3e 0c9c 25be
000002d0: 7a2a 8cbd b581 473e 206a 0b3e 150b aabe
000002e0: c610 183c 9915 05be e50f 2c3d c5b6 353e
000002f0: 321e 0d3f f144 e63e 73d7 a3bd d816 afbe
00000300: d064 a7bd b7c3 973c 17dc 47be ba3b 97bc
00000310: 98c0 143e 97aa febd 944c 61bc 2b39 cf3e
00000320: f395 ab3e ff57 c83d dfd0 c03b 479f 393d
00000330: 02c8 7dbc 848e 8c3e 0428 823e 227a 8b3e
00000340: 4be6 4d3e 2f5c 143f 00a1 323c 571f 8bbe
00000350: ec98 3b3e 744e c63e 9fa6 9dbe 8b8a 22be
00000360: 9b2e 48bc 169c 8cbe 4909 ca3e e336 3c3e
00000370: 1e4a 103e 5791 e93e c7a7 b4bd 5b71 a03e
00000380: fd72 bfbe f234 a6bd 0a5a d7be 15e4 8bbe
00000390: 1c30 b63e d788 413e 00f6 e93e 3c3b 94be
000003a0: 00c4 853d b414 9cbe 86cb 34be 1be8 cbbe
000003b0: 507f b33e 5347 a7be 7747 acbe f971 51be
000003c0: 772b db3e ebe5 c4be 167e 23be 249a 8f3b
000003d0: 805c f73e ffc2 073d aa44 dc3d 43cb 01bf
000003e0: 415c 28be 9d7d 6c3e 0766 bd3c c7ac b2be
000003f0: 9d92 0fbf 5836 a7be 9933 483d 8331 ba3e

linear1.bias f4 [256]
-0.10519765 0.040478684 -0.011560971 -0.07588804 -0.011652681 -0.038714077 0.012160647 0.23202248
0.06985894 -0.46663678 -0.24568139 0.269557 -0.24607885 -0.1726102 0.40304983 -0.21570544
0.08163888 -0.06312714 -0.3035682 -0.09780183 -0.16327266 -0.11587381 0.11715788 -0.27219698
-0.07602663 -0.18706706 -0.09804385 -0.40705904 -0.14248592 -0.29235366 -0.15432326 -0.24523284
-0.2769699 -0.27658635 -0.17752872 0.56751245 0.15375353 -0.29565084 -0.2488015 -0.1475321
-0.22528358 -0.30155504 -0.08477537 0.37605122 0.3587788 -0.32987747 -0.28532696 -0.41134098
0.012751461 0.14080082 -0.29796153 0.413785 -0.18365945 -0.18921073 -0.21112294 0.06452225
0.07413196 0.13162929 -0.1623853 0.005130789 0.1958149 -0.25534043 -0.016804164 -0.03314658
0.090521865 0.10186875 -0.18798575 -0.13521944 -0.18416041 -0.21068762 0.57297754 0.24195167
-0.10089253 0.04313849 -0.09852588 -0.12107687 -0.2126047 -0.00072077604 -0.050793737 0.0018611712
-0.3671477 0.051444408 -0.4085763 -0.22574328 0.50607204 0.13054714 0.28007886 0.09916014
-0.06347317 -0.27300513 -0.050772365 0.5659249 -0.24066828 0.10723312 -0.025630973 0.29581335
0.23757148 -0.15111548 -0.18057661 0.103169866 -0.27152532 0.069804445 0.12959422 -0.1896763
-0.23695236 -0.29279336 -0.075357676 -0.09505663 -0.059225075 -0.122182705 -0.10690428 -0.032306522
-0.09941168 -0.09016307 -0.38609323 -0.15860774 -0.14201096 -0.47310868 -0.17284031 -0.1202655
0.06545081 -0.16814664 -0.034947626 -0.16759978 0.47370973 -0.08276746 -0.06372138 -0.09700803
0.033463143 -0.23932984 -0.1419096 0.080754705 0.16844186 0.044113643 -0.20309374 -0.21436968
0.14326902 -0.26555595 0.061192937 0.059030376 -0.070255175 -0.29685596 -0.32303244 -0.10880226
-0.2534353 -0.20094831 0.07266429 0.21164061 0.08021346 -0.13061368 -0.043106344 -0.10552123
-0.29618365 -0.33924854 -0.09581662 0.05508071 -0.303973 -0.4426767 0.8075462 0.47083515
-0.18720725 -0.21027586 0.14162497 -0.31806993 0.058751527 0.33325294 -0.08743031 0.08868569
-0.20915605 -0.099340856 0.22875604 -0.14261685 -0.1993267 -0.19524333 -0.4672994 -0.0712708
0.18627279 0.36189458 -0.10382776 0.06644921 0.067017205 0.3048489 -0.28295407 -0.29583445
0.15915184 -0.02991601 0.17805363 0.02979303 0.06580974 -0.21839423 0.019123225 0.03917723
0.44330075 -0.14735249 -0.24929959 0.18071106 -0.17776813 -0.060218625 0.03238015 0.25255698
0.28929055 0.26145425 0.096169375 -0.11941862 0.33544216 -0.10205964 0.075110056 -0.050536826
0.12023168 0.12504882 0.33999568 0.12828456 -0.17484145 -0.006300596 0.21410361 -0.19549185
0.4570853 -0.18864274 -0.45588523 -0.22273988 -0.20591193 -0.019829528 -0.20981579 -0.089603424
0.28899252 0.025960071 -0.114745975 -0.01717394 -0.0057586427 0.10978596 -0.06364823 0.27240947
-0.2492074 -0.14015453 -0.22897996 -0.21606229 0.23686922 -0.06330463 -0.22221142 -0.039161555
-0.4574191 0.34679332 -0.034822337 -0.40177083 0.016126854 0.23944221 -0.09331142 0.24862887
0.081162274 0.13069567 -0.21082485 0.16729008 -0.2845271 -0.21017797 0.08047237 -0.1254192
00000000: de71 d7bd facc 253d 3a6a 3dbc 306b 9bbd
00000010: e3ea 3ebc a792 1ebd 733d 473c 4d97 6d3e
00000020: 3412 8f3d 04eb eebe e793 7bbe 6003 8a3e
00000030: 18fc 7bbe bac0 30be 8c5c ce3e e3e1 5cbe
00000040: 4932 a73d cd48 81bd 4b6d 9bbe 534c c8bd
00000050: f330 27be 404f edbd 78f0 ef3d 675d 8bbe
00000060: dab3 9bbd 828e 3fbe 37cb c8bd 0b6a d0be
00000070: d4e7 11be 61af 95be eb06 1ebe 511e 7bbe
00000080: 00cf 8dbe ba9c 8dbe 17ca 35be 7f48 113f
00000090: 9171 1d3e 8c5f 97be d2c5 7ebe a812 17be
000000a0: bdb0 66be 6c65 9abe b69e adbd c989 c03e
000000b0: dbb1 b73e b3e5 a8be 6016 92be 499b d2be
000000c0: 81eb 503c 172e 103e 6a8e 98be a1db d33e
000000d0: 3911 3cbe 75c0 41be 9d30 58be 3e24 843d
000000e0: 7fd2 973d d4c9 063e 5548 26be 2d20 a83b
000000f0: b383 483e fbbb 82be e3a8 89bc b5c4 07bd
00000100: 8763 b93d 90a0 d03d 567f 40be f776 0abe
00000110: 8c94 3cbe 7fbe 57be a8ae 123f 2ec2 773e
00000120: bea0 cebd fcb1 303d f0c7 c9bd 26f7 f7bd
00000130: 0cb5 59be 76f2 3cba 180d 50bd 8bf2 f33a
00000140: c9fa bbbe 5fb7 523d ea30 d1be 3f29 67be
00000150: f08d 013f 26ae 053e 7f66 8f3e 7914 cb3d
00000160: 39fe 81bd 54c7 8bbe aff6 4fbd 74e0 103f
00000170: bf71 76be 0a9d db3d 0cf8 d1bc d974 973e
00000180: f045 733e 04be 1abe 13e9 38be b94a d33d
00000190: 5e05 8bbe a2f5 8e3d 59b4 043e 813a 42be
000001a0: a4a3 72be 03e9 95be 2055 9abd 0dad c2bd
000001b0: fe95 72bd ed3a fabd a2f0 dabd d853 04bd
000001c0: 5a98 cbbd 6aa7 b8bd 03ae c5be 116a 22be
000001d0: 526b 11be 4d3b f2be 0dfd 30be c24d f6bd
000001e0: 130b 863d a22e 2cbe 3e25 0fbd 479f 2bbe
000001f0: 158a f23e fc81 a9bd 5b80 82bd 25ac c6bd
00000200: a610 093d e212 75be c050 11be b962 a53d
00000210: 067c 2c3e 82b0 343d cef7 4fbe ba83 5bbe
00000220: 1db5 123e f3f6 87be 72a5 7a3d d6c9 713d
00000230: f2e1 8fbd 81fd 97be 8264 a5be b8d3 debd
00000240: 46c2 81be 65c5 4dbe 04d1 943d 51b8 583e
00000250: f446 a43d 98bf 05be 4790 30bd 841b d8bd
00000260: 62a5 97be fcb1 adbe 813b c4bd 509c 613d
00000270: 59a2 9bbe 85a6 e2be 59bb 4e3f 4e11 f13e
00000280: 42b3 3fbe 8e52 57be 2306 113e 10da a2be
00000290: 71a5 703d 21a0 aa3e aa0e b3bd d8a0 b53d
000002a0: 012d 56be 3873 cbbd 063f 6a3e 270a 12be
000002b0: 4c1c 4cbe deed 47be de41 efbe 6df6 91bd
000002c0: 4bbe 3e3e 3f4a b93e a6a3 d4bd 8616 883d
000002d0: 5140 893d 2815 9c3e 5bdf 90be 9d77 97be
000002e0: b3f8 223e 6c12 f5bc b153 363e 8310 f43c
000002f0: 42c7 863d bda2 5fbe 4fa8 9c3c 4e78 203d
00000300: 51f8 e23e 92e3 16be 6448 7fbe 520c 393e
00000310: d908 36be cea7 76bd 0ca1 043d 264f 813e
00000320: e41d 943e 55dd 853e 73f4 c43d c091 f4bd
00000330: 13bf ab3e a504 d1bd 4dd3 993d b4ff 4ebd
00000340: 073c f63d cc0c 003e ea13 ae3e 075d 033e
00000350: a309 33be 3b75 cebb fa3d 5b3e 042f 48be
00000360: 1607 ea3e 902b 41be ca69 e9be ec15 64be
00000370: 94da 52be 8971 a2bc f3d9 56be 0082 b7bd
00000380: d4f6 933e 37aa d43c f0ff eabd 5db0 8cbc
00000390: ffb2 bcbb 76d7 e03d 015a 82bd 4179 8b3e
000003a0: 3a30 7fbe ab84 0fbe b979 6abe 6f3f 5dbe
000003b0: d88d 723e dca5 81bd 648b 63be de67 20bd
000003c0: d632 eabe e58e b13e dea1 0ebd e8b4 cdbe
000003d0: 771c 843c 5730 753e 0f1a bfbd 9198 7e3e
000003e0: 6838 a63d 16d5 053e 78e2 57be 174e 2b3e
000003f0: 89ad 91be e538 57be b3ce a43d e46d 00be

linear2.weight f4 [3, 256]
-0.45356312 0.47052616 -0.35279968 0.1225058 0.26269498 0.4458397 0.021900149 -0.5090124
0.19448526 -0.2579547 -0.0998325 0.27390867 -0.17612003 -0.4253029 0.3180689 -0.024813144
0.0817705 -0.031187065 -0.055181738 -0.23485252 -0.3995172 0.2743498 0.24159847 -0.11550908
-0.18579902 0.012568974 0.05958954 -0.26696604 0.024213156 -0.13956015 -0.051168304 0.22737755
-0.052914135 -0.29409856 0.02021294 0.16242595 0.3136141 -0.27573293 -0.19608228 -0.2415052
0.16159572 -0.23693794 -0.30319607 0.15663053 0.32751563 -0.1995804 -0.062869266 -0.2604483
0.24635524 0.23650241 -0.273944 0.39033443 -0.55614156 -0.046126027 -0.10174583 0.19161232
0.045587227 0.107426345 -0.042398766 -0.54431194 0.5963189 -0.0917871 -0.07731253 0.2589211
0.54633313 0.44211662 -0.09950708 0.02256089 -0.0051676794 -0.07596012 0.43046883 0.04692968
-0.0794417 0.09967954 -0.4894824 -0.20417011 -0.24992114 0.016766466 -0.039406467 0.3100015
-0.004776923 0.25212634 -0.10059939 -0.32102102 0.38374865 -0.43018848 0.13688132 -0.4460748
-0.21792762 0.027631475 -0.2529777 0.31168482 -0.013091162 0.058777787 -0.025352607 0.3352063
0.48843727 0.2448354 -0.5224346 -0.11264457 -0.13090986 0.07741679 0.050679017 -0.21969333
-0.39827985 -0.07753471 -0.5467992 -0.14781097 0.051829867 -0.19701548 -0.5681874 -0.11895822
-0.036145546 0.24873272 0.02482911 -0.18808949 -0.2757966 -0.3010406 -0.14749801 -0.4272888
0.0019060839 -0.26342216 -0.32784936 0.00837117 0.3641686 -0.20215686 0.21902584 -0.020234557
0.31400114 -0.5778681 0.018691847 0.23295099 -0.34907675 -0.6419446 0.06559754 -0.18905044
-0.04943926 -0.04170333 0.59836304 0.11645082 0.5099818 0.01572433 -0.079466164 -0.2724131
0.012443148 -0.042704433 0.22461422 0.19188765 -0.021925636 -0.15521768 -0.51247567 -0.089294896
-0.46754068 0.021141753 0.06334702 0.023670487 -0.00924041 -0.028916696 0.43106794 0.30993745
-0.13045388 -0.32049483 0.01858894 -0.22171535 0.033634275 0.25041488 -0.046258993 0.17785168
-0.35646477 0.07021461 0.34811834 0.07121411 -0.4795644 -0.17935763 -0.21093214 -0.47086817
0.28872216 0.37456402 -0.10626635 0.07240926 -0.05102266 0.13833258 -0.06503583 -0.0089959605
0.29659697 -0.53621167 -0.031437397 -0.045446754 -0.6538979 0.26227397 0.25662667 0.016476687
0.4282783 0.4632671 -0.43395087 0.22893506 -0.023658827 -0.040995818 -0.19937493 0.21108653
0.2841521 0.37570596 -0.3831188 0.29240236 0.1639774 -0.020031773 -0.32715893 0.2474168
0.28218013 -0.32975307 0.39159104 0.46776065 -0.10269139 -0.0344141 0.26732078 -0.06286893
0.6192025 -0.12704122 -0.037358202 -0.14773391 0.27818066 -0.23878983 -0.10727355 -0.04543899
0.39294568 0.21457475 0.11768674 -0.105157085 0.40107003 0.26504537 0.025318734 0.40534535
-0.053838633 -0.4708676 -0.091352515 0.063136 0.12536941 -0.27649513 0.031805947 0.15979587
-0.22024117 0.09007052 0.017972913 -0.26164377 0.28645974 0.00021854285 -0.11236294 0.6723211
0.25944388 -0.2425834 0.09954682 0.31208768 -0.025550209 -0.31738958 0.428733 -0.5644402
00000000: 6d39 e8be cee8 f03e 29a2 b4be 52e4 fa3d
00000010: f57f 863e 1a45 e43e f167 b33c a34e 02bf
00000020: 2527 473e a312 84be fb74 ccbd c23d 8c3e
00000030: cf58 34be 4dc1 d9be edd9 a23e ef44 cbbc
00000040: 4b77 a73d 047c ffbc 3f06 62bd 2e7d 70be
00000050: 858d ccbe 9477 8c3e 9765 773e 0690 ecbd
00000060: 1942 3ebe 19ee 4d3c 2914 743d c6af 88be
00000070: ab5a c63c dbe8 0ebe db95 51bd a9d5 683e
00000080: 7ebc 58bd 1694 96be 9c95 a53c fd52 263e
00000090: 0792 a03e de2c 8dbe cbc9 48be 244d 77be
000000a0: 5979 253e dc9f 72be 843c 9bbe c163 203e
000000b0: 21b0 a73e ce5e 4cbe 9ac1 80bd 7b59 85be
000000c0: 8c44 7c3e b02d 723e 6342 8cbe ead9 c73e
000000d0: 4b5f 0ebf a5ee 3cbd 1e60 d0bd 0536 443e
000000e0: acb9 3a3d 5802 dc3d 54aa 2dbd 0758 0bbf
000000f0: 5ba8 183f e0fa bbbd 0856 9ebd 4e91 843e
00000100: 7ddc 0b3f 1c5d e23e 5eca cbbd 9ed1 b83c
00000110: a355 a9bb fb90 9bbd 6966 dc3e 5639 403d
00000120: 54b2 a2bd c924 cc3d 709d fabe f811 51be
00000130: 54eb 7fbe d459 893c ad68 21bd 84b8 9e3e
00000140: bc87 9cbb b416 813e 0e07 cebd de5c a4be
00000150: b47a c43e aa41 dcbe 9e2a 0c3e eb63 e4be
00000160: 6b28 5fbe 675b e23c 4b86 81be 2795 9f3e
00000170: 507c 56bc fac0 703d 45b0 cfbc 29a0 ab3e
00000180: 7314 fa3e 22b6 7a3e 46be 05bf 32b2 e6bd
00000190: 3c0d 06be b28c 9e3d cd94 4f3d 4af7 60be
000001a0: 56eb cbbe 85ca 9ebd 08fb 0bbf c25b 17be
000001b0: 8e4b 543d 6dbe 49be bb74 11bf 5ea0 f3bd
000001c0: 5a0d 14bd cab3 7e3e 6b66 cb3c 889a 40be
000001d0: 3635 8dbe fe21 9abe b809 17be 99c5 dabe
000001e0: 90d5 f93a 45df 86be dfdb a7be 3b27 093c
000001f0: 4f74 ba3e 3502 4fbe 4f48 603e f1c2 a5bc
00000200: c2c4 a03e 2aef 13bf a51f 993c b48a 6e3e
00000210: 30ba b2be 7b56 24bf 0158 863d 7096 41be
00000220: d280 4abd 1cd1 2abd 522e 193f c47d ee3d
00000230: 2b8e 023f 4fd0 803c 28bf a2bd bb79 8bbe
00000240: 58de 4b3c d8ea 2ebd 4501 663e 327e 443e
00000250: 649d b3bc 62f1 1ebe 9b31 03bf 3ee0 b6bd
00000260: 7e61 efbe 7831 ad3c 15bc 813d 9ce8 c13c
00000270: 1765 17bc b5e2 ecbc f0b4 dc3e 1fb0 9e3e
00000280: b495 05be e617 a4be d547 983c 5909 63be
00000290: 18c4 093d 6136 803e 127a 3dbd c01e 363e
000002a0: 8d82 b6be adcc 8f3d 913c b23e b4d8 913d
000002b0: 7789 f5be 87a9 37be 98fe 57be a215 f1be
000002c0: 64d3 933e dbc6 bf3e 2ca2 d9bd 4e4b 943d
000002d0: 23fd 50bd 0ea7 0d3e 8131 85bd cb63 13bc
000002e0: 8fdb 973e 2b45 09bf 80c4 00bd 6026 3abd
000002f0: da65 27bf c648 863e 9264 833e 1efa 863c
00000300: 4b47 db3e 5831 ed3e cf2e debe f46d 6a3e
00000310: 28d0 c1bc 3beb 27bd f128 4cbe 1127 583e
00000320: 627c 913e 885c c03e 2628 c4be c3b5 953e
00000330: b1e9 273e ac19 a4bc 6081 a7be d45a 7d3e
00000340: ea79 903e 65d5 a8be 9f7e c83e 537e ef3e
00000350: dd4f d2bd cdf5 0cbd 45de 883e 6dc1 80bd
00000360: 0e84 1e3f 1817 02be ea04 19bd 8f47 17be
00000370: b26d 8e3e 5285 74be 3cb2 dbbd 3c1e 3abd
00000380: 2d30 c93e 7cb9 5b3e bf05 f13d 995c d7bd
00000390: 0d59 cd3e 07b4 873e 3c69 cf3c 6d89 cf3e
000003a0: e685 5cbd 8f15 f1be 0717 bbbd 724d 813d
000003b0: d760 003e c590 8dbe f446 023d 87a1 233e
000003c0: e786 61be e576 b83d ee3b 933c 2cf6 85be
000003d0: daaa 923e a628 6539 8b1e e6bd 3c1d 2c3f
000003e0: d4d5 843e c867 78be 34df cb3d f5c9 9f3e
000003f0: ac4e d1bc e380 a2be e482 db3e 277f 10bf

linear2.bias f4 [3]
0.18321496 0.0897077 0.12865447
00000000: b49c 3b3e acb8 b73d ffbd 033e
