model/model_ID5_score_73.pth (torch, 17995 bytes, 4 tensors)

linear1.weight f4 [256, 11]
0	0x3d9d6fca	0.07687338
1	0xbebb03f3	-0.3652645
2	0x3fb9a9f1	1.4504987
3	0x3e6df6e1	0.23238708
4	0xbddf8106	-0.10913281
5	0x3eb018d2	0.34393936
6	0xbea842fc	-0.32863605
7	0xbe602741	-0.21889974
8	0x3e97614c	0.2956642
9	0xbe24175a	-0.16024533
10	0xbeb4df5b	-0.35326657
11	0xbf1ce2ae	-0.61283386
12	0xbed9bf03	-0.42528543
13	0x3de03ff7	0.109497
14	0x3f0606d8	0.5235419
15	0xbf0796c7	-0.5296444
16	0x3e48ae70	0.19597793
17	0xbef51cc8	-0.4787352
18	0x3d9dcf14	0.07705513
19	0xbf5022e9	-0.8130327
20	0xbf874a2b	-1.0569509
21	0xbf3caa8f	-0.7369775
22	0xbd9c8db5	-0.07644216
23	0xbf183304	-0.59452844
24	0x3e929f05	0.28636947
25	0x3e1a6f8e	0.15081617
26	0xbeefa0b5	-0.46802297
27	0xbf0e3339	-0.5554691
28	0xbe627303	-0.22114186
29	0xbeadc9fc	-0.33943164
30	0xbeccbd5f	-0.3998823
31	0x3e8ef24d	0.27919236
32	0xbe975ed8	-0.29564548
33	0xbe47e34f	-0.19520305
34	0x3c92e6f3	0.01793239
35	0xbf2599f2	-0.64688027
36	0xbf466fa4	-0.775141
37	0x3ef2b884	0.474064
38	0x3f299831	0.6624785
39	0xbeaa0952	-0.33210236
40	0xbf21a5b4	-0.6314347
41	0x3e404f6e	0.187803
42	0xbe304b84	-0.17216307
43	0xbf479fd1	-0.77978235
44	0x3f6531ad	0.89528924
45	0x3d72952c	0.059224293
46	0x3dfcbdaf	0.12340867
47	0xbee656cf	-0.44988105
48	0xbe0615bf	-0.13094233
49	0xbeb4ba75	-0.35298505
50	0xbdd039d8	-0.10167283
51	0x3f2c565e	0.67319286
52	0x3eddd37c	0.43325412
53	0x3f1b0074	0.60547566
54	0x3ebba4c3	0.3664914
55	0xbed3529a	-0.41273957
56	0x3e434b66	0.19071731
57	0x3c7265f6	0.014794817
58	0xbef6edac	-0.48228204
59	0xbd160621	-0.03662694
60	0xbd87fbc2	-0.06639816
61	0xbe450cd8	-0.19243181
62	0xbf021500	-0.50813293
63	0xbd22860e	-0.039678626
64	0xbd6cff8e	-0.057860903
65	0x3ded91bf	0.116000645
66	0x3e61cf5c	0.22051758
67	0x3e8819d4	0.26582205
68	0xbe09e26a	-0.13465276
69	0xbea980c1	-0.33106044
70	0xbe248ccf	-0.16069339
71	0xbd7957c8	-0.06087473
72	0xbe2d6702	-0.16933826
73	0xbd137ffa	-0.03601072
74	0x3dc6e48b	0.0971156
75	0xbf05f0bd	-0.5232046
76	0xbde33c20	-0.11095452
77	0xbe120b45	-0.14262111
78	0x3e1b5a8b	0.15171258
79	0xbef565cd	-0.4792923
80	0xbe9beb3b	-0.30452904
81	0x3c784bf6	0.015154829
82	0x3d7a369a	0.06108723
83	0xbe26fc66	-0.1630722
84	0x3d2cf89d	0.042229284
85	0x3d9e413d	0.07727287
86	0xbd8b37db	-0.06797763
87	0xbe2aca64	-0.16678768
88	0x3c2a52f4	0.010395754
89	0x3c9b7183	0.018975025
90	0xbe1ee4bb	-0.15516941
91	0x3ee2e9fa	0.44319135
92	0xbeaf66ba	-0.34258062
93	0xbeb07ef5	-0.3447186
94	0x3e9f33bf	0.31094167
95	0xbf4a836e	-0.79106796
96	0xbf394043	-0.7236368
97	0x3ea68414	0.32522643
98	0xbefb543d	-0.49087706
99	0xbe8f2396	-0.27956837
100	0xbe391a3a	-0.18076411
101	0x39dc5279	0.00042023117
102	0x3cf58b82	0.02997375
103	0xbe6d342e	-0.23164436
104	0x3dd2446f	0.10266959
105	0xbe080677	-0.13283716
106	0xbd635e03	-0.05550958
107	0xbe14d880	-0.14535713
108	0xbe625960	-0.22104406
109	0x3cd1237c	0.025529616
110	0xbea8803a	-0.3291033
111	0xbe5835ee	-0.21114323
112	0x3f98f3bf	1.1949385
113	0x3e1953dd	0.14973398
114	0xbdcc27b5	-0.09968511
115	0xbe829f4c	-0.2551216
116	0x3e8a6d88	0.2703669
117	0x3e0ea047	0.13928328
118	0xbe76f715	-0.24117692
119	0xbd8f5f19	-0.0700056
120	0xbe74bc74	-0.23900014
121	0x3db9f9e0	0.09080863
122	0xbf798cd8	-0.97480536
123	0x3eca8557	0.39554855
124	0xbe6270a2	-0.22113279
125	0xbf03ef0d	-0.5153664
126	0xbef09a17	-0.4699256
127	0x3c966943	0.01836074
128	0xbe7c31a7	-0.24628316
129	0xbe8a4575	-0.27006117
130	0x3df1cf09	0.11807067
131	0xbeb27e65	-0.34862056
132	0x3e441f09	0.19152464
133	0x3e343e1b	0.17601816
134	0x3ea6950d	0.32535592
135	0x3d9f077c	0.077650994
136	0xbe4061b9	-0.18787278
137	0xbb6981fb	-0.0035630453
138	0xbdd5a97d	-0.10432718
139	0xbe181df7	-0.1485518
140	0xbe19df64	-0.15026623
141	0xbde835c2	-0.113383785
142	0x3d863a19	0.0655405
143	0x3e001917	0.12509571
144	0x3e965616	0.29362553
145	0xbe538604	-0.20656592
146	0xbe57d3e7	-0.21076928
147	0xbe5ba2b0	-0.21448779
148	0xbd8ce3a5	-0.06879357
149	0xbeaed911	-0.34149984
150	0xbe4937dd	-0.19650216
151	0xbe48707e	-0.19574162
152	0xbea135b5	-0.31486288
153	0xbd9aa15a	-0.075503066
154	0x3dd92e7d	0.1060457
155	0x3df8bf00	0.12145805
156	0xbca77c32	-0.020444963
157	0xbec58f60	-0.3858595
158	0x3f1a7b22	0.60344136
159	0x3f221a07	0.63320965
160	0xbe9ac7f3	-0.30230674
161	0xbf984619	-1.1896392
162	0xbf964dd4	-1.1742501
163	0xbf1cde09	-0.612763
164	0x3f060728	0.5235467
165	0xbe9f664a	-0.31132728
166	0xbdc6e2a6	-0.097111985
167	0xbe48c224	-0.19605309
168	0xbf24158a	-0.64095366
169	0xbb3d8ccd	-0.0028923035
170	0xbd0b06f7	-0.03394219
171	0xbf14b453	-0.5808765
172	0xbef7d4cc	-0.4840454
173	0xbe2332fe	-0.1593742
174	0xbe038c90	-0.12846589
175	0xbf009897	-0.50232834
176	0x3dcd73e4	0.1003187
177	0x3e38e026	0.18054256
178	0x3ecbbbdb	0.3979176
179	0x3da95648	0.0826841
180	0xbec93081	-0.39294818
181	0xbdf5a792	-0.11994852
182	0xbddb45c6	-0.107066676
183	0xbee95823	-0.45575055
184	0x3c1ba89b	0.009500648
185	0xbdae286b	-0.08503803
186	0xbeacf508	-0.33780694
187	0x3e7a9357	0.24470268
188	0x3f513ad8	0.81730413
189	0x3e962ef6	0.29332703
190	0xbe9e6d5c	-0.3094281
191	0xbf018248	-0.5058942
192	0xbe310bc2	-0.17289641
193	0xbe9ea7b2	-0.30987316
194	0x3efa81fd	0.48927298
195	0x3f18c7d1	0.59679896
196	0x3f0ede92	0.55808365
197	0x3f142d7d	0.5788191
198	0xbf4ef55c	-0.8084314
199	0x3e6141d7	0.21997772
200	0x3e081328	0.13288558
201	0xbe9740e1	-0.29541686
202	0xbec67dd0	-0.38767862
203	0xbd8e4c54	-0.06948152
204	0xbc0d4db4	-0.008624483
205	0xbea999a5	-0.33125034
206	0xbe0e5c36	-0.13902363
207	0xbdc3cf92	-0.09561075
208	0xbe1607f7	-0.14651476
209	0xbd6f16aa	-0.058371224
210	0xbe815dff	-0.25267026
211	0x3adb51cb	0.001673275
212	0x3dbd548b	0.09244641
213	0x3e06e752	0.13174179
214	0xbcb30f10	-0.021857768
215	0x3e039888	0.12851155
216	0xbd6e2a15	-0.0581456
217	0xbd7bc7f5	-0.06146999
218	0xbe092b9d	-0.13395543
219	0x3d8cbfac	0.06872496
220	0x3f639f02	0.889145
221	0xbd436fed	-0.047714163
222	0xbd3c6fc4	-0.046005026
223	0x3da12111	0.07867635
224	0xbeb0f399	-0.3456085
225	0x3f2272ab	0.6345622
226	0x3eca4c7c	0.39511478
227	0x3dca057d	0.09864328
228	0x3f182634	0.59433293
229	0xbf0e7f63	-0.55663127
230	0xbeeb2cce	-0.4593262
231	0x3dc0237c	0.09381768
232	0x3d82f7a4	0.0639489
233	0xbe71c902	-0.23611835
234	0x3e465784	0.19369322
235	0x3debeab4	0.115193754
236	0x3e04c3bc	0.12965292
237	0xbd68fb6c	-0.0568804
238	0xbe36794e	-0.17819712
239	0xbe1d387a	-0.15353575
240	0xbe1355bb	-0.14388172
241	0xbe166a08	-0.14688885
242	0xbe28efd0	-0.16497731
243	0xbdecd659	-0.11564321
244	0xbca3a2ef	-0.019975154
245	0xbe8594b5	-0.26090017
246	0x3ea7d0db	0.32776532
247	0x3edae90c	0.42755926
248	0xbeb31f0b	-0.3498462
249	0x3f03c74d	0.51475984
250	0xbe6c79f1	-0.23093392
251	0xbf36637e	-0.71245563
252	0xbf4c7638	-0.7986789
253	0xbe89fbd2	-0.26949936
254	0x3d519991	0.051171843
255	0xbe002c38	-0.12516868

linear1.bias f4 [256]
0	0xbca1a313	-0.01973108
1	0x3b9431db	0.004522545
2	0xbec1ce31	-0.37852624
3	0x3ee2c164	0.4428817
4	0xbecc71e0	-0.3993063
5	0xbec19d9e	-0.37815565
6	0xbf12b8a5	-0.57312995
7	0xbeb41748	-0.35174012
8	0xbbf4104e	-0.0074482327
9	0xbe776d9a	-0.24162903
10	0xbe3aad89	-0.18230261
11	0xbf00bb46	-0.50285757
12	0xbf6498d3	-0.8929569
13	0xbed22d8c	-0.41050375
14	0xbea851df	-0.32874963
15	0x3dfd6739	0.12373204
16	0xbf311c65	-0.6918395
17	0xbef3d524	-0.4762355
18	0xbe6e4ebf	-0.23272227
19	0xbea102f7	-0.31447574
20	0xbe72f195	-0.23724969
21	0xbe786010	-0.24255395
22	0xbe24f031	-0.16107251
23	0xbb775116	-0.003773754
24	0xbe447b46	-0.1918765
25	0xbeafa916	-0.3430869
26	0xbe82c8f2	-0.25543934
27	0x3db945fb	0.09046551
28	0xbef1418c	-0.4712032
29	0xbe7b02aa	-0.24512735
30	0x3deb741c	0.114967555
31	0x4050eece	3.2645755
32	0xbdc45e58	-0.09588307
33	0xbe8066f0	-0.25078535
34	0x3c39126d	0.011295897
35	0xbe83cf5a	-0.25744134
36	0x3d2d89dd	0.042367805
37	0xbe7de58b	-0.24794595
38	0xbdda268d	-0.10651884
39	0xbe78c693	-0.242945
40	0xbf04705e	-0.5173396
41	0xbe519583	-0.2046719
42	0x3df5439d	0.11975787
43	0xbed24785	-0.4107019
44	0xbe9b6e2a	-0.30357486
45	0xbe4d0a1a	-0.20023385
46	0x3e9936ec	0.29924715
47	0x3d19a3e5	0.037509818
48	0xbf1e5208	-0.6184392
49	0xbe90381c	-0.28167808
50	0xbebeef92	-0.37292153
51	0x3e7bd63a	0.2459344
52	0xbeaabd07	-0.3334734
53	0x3d07da8e	0.033167414
54	0xbeca244e	-0.39480823
55	0xbe068f71	-0.13140656
56	0xbe984b79	-0.2974508
57	0xbdeea2f7	-0.11652177
58	0xbf4aaff3	-0.7917473
59	0x3f78e032	0.97217095
60	0xbde4dc24	-0.11174801
61	0xbf6ab302	-0.91679394
62	0xbe009d2f	-0.12559961
63	0xbf2fed71	-0.6872168
64	0xbdebc815	-0.11512772
65	0xbf0cee50	-0.55051136
66	0x3ec65939	0.38739946
67	0xbe86bed5	-0.26317468
68	0xbdd0751c	-0.10178587
69	0xbeea24a0	-0.45731068
70	0xbe455cb3	-0.19273643
71	0xbe6e692a	-0.23282304
72	0x3e6f72b6	0.23383602
73	0xbe75e70d	-0.2401392
74	0xbcc68a0b	-0.024235746
75	0xbcf94397	-0.030427737
76	0xbea7e3e7	-0.32791063
77	0xbf204ec7	-0.62620205
78	0xbf048ebd	-0.517803
79	0xbe688693	-0.22707586
80	0xbd3845f6	-0.044988595
81	0xbeb10123	-0.3457118
82	0x3e101f60	0.14074469
83	0x3dffc5b2	0.12488879
84	0xbf0124dc	-0.5044687
85	0xbed0839a	-0.40725404
86	0xbe1ae320	-0.15125704
87	0x3e4265d9	0.18984164
88	0xbea7a69f	-0.3274431
89	0x3ed07fdf	0.40722558
90	0xbefdc100	-0.4956131
91	0xbf297256	-0.6619009
92	0x3eeeaf56	0.46618146
93	0x3e03fe42	0.1288996
94	0xbe981fc3	-0.29711732
95	0xbe8917ca	-0.26775962
96	0xbf2818a4	-0.656626
97	0xbf1896ec	-0.5960529
98	0x3e0842e8	0.13306773
99	0x3c66c6bc	0.014085468
100	0xbe5d8441	-0.21632482
101	0xbd90840b	-0.07056435
102	0x3e91ec20	0.28500462
103	0xbf26ae76	-0.65109956
104	0xbef77899	-0.48334196
105	0x3d23d599	0.039998624
106	0x3caaad76	0.020834666
107	0x3ccdc4ba	0.02511822
108	0xbe2dfca1	-0.16990902
109	0xbf39a66e	-0.72519577
110	0xbf2effd6	-0.68359125
111	0xbed2deb2	-0.41185528
112	0xbe7fbdea	-0.2497479
113	0xbf0b7bfe	-0.5448607
114	0x3e9a15e8	0.30094838
115	0xbed5b713	-0.41741237
116	0xbeb59551	-0.35465482
117	0xbeaa3279	-0.33241633
118	0xbeedf185	-0.46473327
119	0xbef64d62	-0.48105913
120	0xbe9cd063	-0.30627736
121	0x3d7d3ede	0.061827533
122	0xbb8f8819	-0.004380238
123	0xbf2c8fc7	-0.67406887
124	0xbf0f3e5d	-0.55954534
125	0xbbe153fe	-0.0068764677
126	0xbe5f64f0	-0.21815848
127	0xbe36efa9	-0.1786486
128	0xbe5d61e9	-0.21619381
129	0xbbc36308	-0.005962733
130	0xbee42a5c	-0.44563568
131	0x3cc4801e	0.023986872
132	0xbe7f32ee	-0.24921772
133	0xbc9cee63	-0.01915664
134	0xbeb2e4ca	-0.34940177
135	0xbd5cd30a	-0.0539122
136	0xbf0e9d8a	-0.55709136
137	0xbeae4821	-0.34039405
138	0xbe9412b9	-0.28920534
139	0xbd95344b	-0.07285365
140	0xbec54e85	-0.38536468
141	0xbed6808a	-0.41894943
142	0x3c3c8d3a	0.01150828
143	0x3ef393be	0.47573656
144	0xbea31f18	-0.3185966
145	0xbec41e93	-0.38304576
146	0xbe9c75d9	-0.3055866
147	0xbe90a67e	-0.28252023
148	0x3e440f67	0.191465
149	0x3dea5f05	0.11443905
150	0x3edbf859	0.42962912
151	0xbe46030e	-0.19337103
152	0xbeab329a	-0.33437043
153	0x3d94b2a8	0.072606385
154	0x3f9a7a99	1.2068664
155	0xbf0d1db7	-0.55123466
156	0xbe9f5f47	-0.31127378
157	0xbed2350b	-0.41056094
158	0x3c4760d7	0.0121690845
159	0xbea3f8e3	-0.32025823
160	0xbe208ae0	-0.15677977
161	0x3ef1456d	0.4712328
162	0xbe8c147b	-0.27359375
163	0xbf29e980	-0.6637192
164	0x3dc102c1	0.094243534
165	0x3e41024c	0.18848532
166	0x3d13f703	0.03612424
167	0x3e271c44	0.16319376
168	0xbf3a9b70	-0.7289343
169	0xbec80d1e	-0.39072508
170	0x3faed616	1.3659084
171	0xbeb2b37f	-0.3490257
172	0xbee5b6b2	-0.44865948
173	0xbecaaa14	-0.39582884
174	0x3c14cbf5	0.00908183
175	0xbd872bd5	-0.06600157
176	0xbc74ce4b	-0.014941762
177	0x3df01eef	0.1172465
178	0xbde5e905	-0.112260856
179	0xbe60eaca	-0.21964565
180	0xbe1cbac4	-0.1530562
181	0xbea8f81c	-0.33001792
182	0xbedea4a7	-0.43484995
183	0xbe8f510a	-0.27991515
184	0xbe687cc3	-0.22703843
185	0xbf15ebf1	-0.58563143
186	0xbe974764	-0.29546654
187	0x3e3f7e32	0.18700483
188	0xbf2df135	-0.6794618
189	0xbe842b8c	-0.25814474
190	0x3ed4ee40	0.4158802
191	0xbf037d5b	-0.5136315
192	0x3f36664b	0.71249837
193	0xbe92dc66	-0.28683776
194	0x3d9dfa14	0.07713714
195	0xbe35311b	-0.17694513
196	0xbeed900c	-0.46398962
197	0xbe2350d3	-0.159488
198	0xbe161246	-0.14655408
199	0xbe701a0a	-0.23447433
200	0x3f01fa25	0.50772315
201	0x3cbb995b	0.022900274
202	0xbec447e4	-0.38336098
203	0xbf5954b9	-0.848949
204	0x3c995cf3	0.01872108
205	0xbc4b823f	-0.01242119
206	0xbe65264b	-0.22377889
207	0x3ed356d6	0.41277188
208	0xbf05d6c0	-0.5228081
209	0x3d788cd5	0.060681183
210	0xbe75fffd	-0.24023433
211	0xbeb14c32	-0.34628445
212	0xbd3c9fde	-0.0460509
213	0xbf25a6ae	-0.6470746
214	0x3f5d0a25	0.86343604
215	0xbf44d663	-0.7688963
216	0xbf0e2182	-0.5551988
217	0xbec5c678	-0.38627982
218	0x3e3c15a4	0.1836763
219	0xbe234c6c	-0.15947121
220	0xbed8abe4	-0.42318642
221	0xbf0eb975	-0.55751735
222	0xbe9f563e	-0.31120485
223	0xbd86c9a2	-0.06581427
224	0xbd6771bb	-0.056504946
225	0xbf0abfc9	-0.5419889
226	0xbe40a76b	-0.18813865
227	0xbd733f74	-0.059386685
228	0xbf01c551	-0.50691706
229	0xbf0d4c91	-0.55194956
230	0x3d88d2d3	0.066808365
231	0xbecdd7fa	-0.4020384
232	0xbbe73073	-0.007055336
233	0xbf035b7a	-0.5131146
234	0xbf02609a	-0.5092865
235	0xbefc6918	-0.4929893
236	0x3d432204	0.04763986
237	0xbea01d9e	-0.31272596
238	0x3c8faca6	0.01753838
239	0xbf29f81f	-0.6639423
240	0xbe8af955	-0.2714335
241	0xbf088476	-0.5332712
242	0xbe0620df	-0.13098477
243	0xbe8c3d6c	-0.2739061
244	0xbf2ad87d	-0.66736585
245	0xbd8070ed	-0.06271539
246	0xbe954944	-0.2915746
247	0xbf0b3487	-0.54377025
248	0xbe83020c	-0.255875
249	0xbecab350	-0.3958993
250	0x3d130203	0.03589059
251	0xbd10a48a	-0.035313167
252	0xbf008676	-0.5020517
253	0x3d5ee1c0	0.05441451
254	0xbe5c1f58	-0.21496332
255	0x3eea75cf	0.45793006

linear2.weight f4 [3, 256]
0	0x3d2ca590	0.04215008
1	0x3e6dcddf	0.23223065
2	0xbe44defb	-0.19225685
3	0x3ecd056a	0.40043193
4	0xbe8d958f	-0.27653167
5	0xbd88821e	-0.06665443
6	0xbbb94d39	-0.0056549576
7	0xbca102f3	-0.019654727
8	0xbe8589f4	-0.26081812
9	0x3c2a2c79	0.01038658
10	0x3dc94a5e	0.098286375
11	0x3d326f8b	0.043563407
12	0xbbd4adb9	-0.006490436
13	0xbbf2aed7	-0.0074060964
14	0xbf3fa7af	-0.7486524
15	0xbb7a14a1	-0.0038159268
16	0xbc3e828e	-0.011627806
17	0xbe2a2df1	-0.16619088
18	0xbb6fec7b	-0.003660946
19	0xbc141bb6	-0.00903981
20	0xbed0d96b	-0.40790877
21	0xbcb0bcd0	-0.021574408
22	0xbf422681	-0.7584
23	0x3c9c9065	0.019111821
24	0xbc85f94d	-0.016354227
25	0x3e255fe8	0.16149867
26	0xbe0f1b7f	-0.13975333
27	0x3f15cd7f	0.5851669
28	0xbe1e122d	-0.15436621
29	0xbbe4b920	-0.0069800764
30	0x3ea3bb8a	0.31979018
31	0x3f1c3bdc	0.6102884
32	0xbf0ddb96	-0.55413187
33	0xb9bb5027	-0.00035727138
34	0x3ef816b2	0.48454815
35	0xbed7a37d	-0.4211692
36	0x3eb9b691	0.362721
37	0xbeded156	-0.43519086
38	0x3d6c74f0	0.057728708
39	0xbd39a238	-0.04532072
40	0xbd80a7f7	-0.06282037
41	0x3a1859fa	0.00058117474
42	0xbe1cbadd	-0.15305658
43	0xbcafb0a8	-0.021446541
44	0x3c643944	0.013929669
45	0xbd25e947	-0.040505674
46	0x3ef31c69	0.47482613
47	0xbe001167	-0.12506638
48	0x3dd12eb6	0.102139875
49	0x3c489d02	0.012244465
50	0x3da9aa27	0.08284407
51	0x3f0d2684	0.55136895
52	0xbbfa4734	-0.0076378826
53	0x3dc04ef0	0.09390056
54	0xbdee0544	-0.11622098
55	0xbe3aa37b	-0.18226425
56	0x3cb989ca	0.02264871
57	0xbe741ba3	-0.23838668
58	0xbcbdfa73	-0.023190713
59	0x3eafb77e	0.3431968
60	0xbed62874	-0.41827738
61	0xbc1f6571	-0.009728775
62	0xbef98a51	-0.4873834
63	0xbcf221f0	-0.029557198
64	0xbe8760dc	-0.26441085
65	0x3cec8f4f	0.028876929
66	0x3ecd5279	0.40101984
67	0xbebd6ed5	-0.3699862
68	0x3e176212	0.14783505
69	0xbda424e8	-0.08014852
70	0x3dd9ddde	0.10638021
71	0xbed60cd8	-0.41806674
72	0x3ea8fc23	0.33004865
73	0x3cf18753	0.029483473
74	0x3b01987c	0.0019774726
75	0x3e0b5a52	0.13608673
76	0xbea91928	-0.33027005
77	0xbd3bcfc4	-0.045852438
78	0x3b2e4b52	0.0026595187
79	0x3bd80322	0.0065921703
80	0xbeeb5f5c	-0.4597119
81	0xbe896061	-0.26831344
82	0xbe66f4b7	-0.22554289
83	0x3e845aac	0.25850427
84	0xbe9c245f	-0.304965
85	0x3ca00c47	0.019537104
86	0x3da465b3	0.0802721
87	0xbe10e030	-0.1414802
88	0xbe86f157	-0.26356003
89	0x3f4b765c	0.7947748
90	0xbd1c1093	-0.038101744
91	0x3e9cc501	0.30619052
92	0x3ebc0dfb	0.36729416
93	0x3d495556	0.04915365
94	0x3c78c30f	0.015183224
95	0xbc83aa54	-0.01607243
96	0x3b393637	0.0028261074
97	0xbdfe3b80	-0.124136925
98	0x3f3f915a	0.74831164
99	0xbf0e13ef	-0.55499166
100	0xbf1e9f3e	-0.61961734
101	0xbca60812	-0.02026752
102	0x3f2b8081	0.66992956
103	0x3dcb8a16	0.09938447
104	0xbdc6523b	-0.09683653
105	0xbf5ed3a8	-0.8704171
106	0x3eb0e125	0.34546772
107	0x3e14b19d	0.14520879
108	0xbeb1a198	-0.346936
109	0xbeab269f	-0.33427903
110	0x3ecc56a9	0.39909866
111	0x3b4203cf	0.002960432
112	0x3ccf7c9c	0.025327973
113	0x3d86e2f6	0.06586258
114	0x3f0c96c1	0.5491753
115	0x3d275c45	0.04085948
116	0x3dff0138	0.12451404
117	0xbbde8168	-0.006790329
118	0xbe942949	-0.28937748
119	0xbddad1fc	-0.106845826
120	0x3d04521c	0.032304868
121	0xbed64a0b	-0.41853365
122	0xbf1b9cc2	-0.6078607
123	0x3c8759df	0.016522346
124	0x3be3f467	0.0069566253
125	0xbec49d56	-0.38401288
126	0xbea8b27b	-0.3294867
127	0xbe58b148	-0.21161377
128	0xbc4b50c7	-0.012409396
129	0xbf819e34	-1.0126405
130	0xbc272719	-0.010202193
131	0xbe8d6b79	-0.27621058
132	0xbe08cd01	-0.13359453
133	0xbea88f96	-0.32922047
134	0xbc4f71a8	-0.012661375
135	0x3d8bf62c	0.06834063
136	0x3d41ab68	0.047282606
137	0xbd03b824	-0.032158032
138	0xbe9d29ae	-0.30695862
139	0x3da56c57	0.08077305
140	0x3c97ad21	0.018515171
141	0xbd26d8ae	-0.040733986
142	0x3d837b03	0.06419947
143	0x3f14bb84	0.58098626
144	0xbeeca798	-0.46221614
145	0xbecf8678	-0.4053228
146	0xbcc3afef	-0.023887603
147	0xbe30a79d	-0.1725144
148	0x3d37db97	0.04488715
149	0x3defa266	0.11700897
150	0x3e7edae1	0.24888183
151	0x3b52102e	0.00320531
152	0xbeb2079c	-0.3477143
153	0x3d1bb66c	0.038015768
154	0x3e9c12d3	0.30483112
155	0x3cee9efc	0.029128544
156	0xbf490537	-0.7852358
157	0xbdec225f	-0.11529993
158	0x3c90d147	0.017677916
159	0x3b51adab	0.0031994383
160	0xbe5cb13c	-0.21551985
161	0x3ed22616	0.41044682
162	0xbccd18f7	-0.025036318
163	0xbe407ffc	-0.18798822
164	0x3e865c48	0.2624228
165	0xbe7d7ff7	-0.24755846
166	0xbedf3e49	-0.43602207
167	0xbf1c9b88	-0.6117482
168	0x3cfddd90	0.030989438
169	0xbe593b51	-0.21214034
170	0x3eb15a5d	0.34639254
171	0xbc1eef2d	-0.009700579
172	0xbe635524	-0.22200447
173	0xbc6f29f5	-0.014597406
174	0x3e8fa233	0.28053436
175	0xbeed5020	-0.46350193
176	0xbf17593a	-0.59120524
177	0xbc176006	-0.009239202
178	0x3e3a04ac	0.18165845
179	0xbf122c28	-0.5709863
180	0x3e513b58	0.20432794
181	0x3d073126	0.033005856
182	0xbdb6440a	-0.08899696
183	0x3caea437	0.021318538
184	0xbe90a1bf	-0.28248402
185	0x3ca87ff3	0.020568823
186	0x3c08de77	0.008353821
187	0xbf117b50	-0.56828785
188	0x3c100731	0.008790777
189	0x3d7ee709	0.06223205
190	0x3eefddc9	0.46848896
191	0xba9164a4	-0.0011092615
192	0x3e9a9f61	0.3019972
193	0x3d0fce62	0.03510893
194	0xbe4fb1b5	-0.20282634
195	0xbe4eb556	-0.20186362
196	0xbd8964fe	-0.06708716
197	0x3e7f99ca	0.2496101
198	0xbe4ed5f8	-0.2019881
199	0xbd73a748	-0.059485704
200	0x3e1b7afb	0.15183632
201	0x3c4a1e97	0.012336395
202	0xbd08226d	-0.033235956
203	0x3e02a56f	0.1275842
204	0x3d1351bd	0.035966624
205	0x3d84e1fd	0.06488416
206	0x3d7414a4	0.059589997
207	0x3f227392	0.63457596
208	0xbecf8bca	-0.40536338
209	0x3d9d7b7f	0.07689571
210	0xbe17edee	-0.14836857
211	0xbe7e1c6d	-0.24815531
212	0xbe208dab	-0.15679042
213	0xbd73cdea	-0.059522547
214	0x3eeff44f	0.4686608
215	0x3c15885d	0.00912675
216	0xbca011b1	-0.019539686
217	0xbdab6ba3	-0.083701394
218	0xbe0ae274	-0.13562948
219	0x3eb023b8	0.3440225
220	0x3d6ef72d	0.058341194
221	0xbdf2047d	-0.11817262
222	0xbf25909c	-0.6467378
223	0xbda33fa4	-0.07971123
224	0x3d8a980a	0.067672804
225	0xbe8fa57f	-0.2805595
226	0xbd0ee73b	-0.034888487
227	0x3f09ba93	0.53800315
228	0x3d9e531d	0.07730696
229	0x3a2fd5a1	0.00067075534
230	0x3d9f8da8	0.07790691
231	0x3c0e873f	0.008699237
232	0xbe8a8189	-0.27051952
233	0x3cb226fd	0.021747107
234	0x3d14a8da	0.036293842
235	0xbd297f7b	-0.04138134
236	0xbd87e9b5	-0.06636373
237	0xbddc0468	-0.10743028
238	0x3e350c84	0.17680556
239	0x3e248888	0.16067708
240	0x3d4811db	0.048845153
241	0xbe9fa308	-0.3117907
242	0xbea0e364	-0.31423485
243	0x3e26a27b	0.16272919
244	0xbc719f97	-0.014747522
245	0xbe73ae86	-0.23797044
246	0xbc89bad4	-0.01681272
247	0xbc1c9cf5	-0.009558906
248	0x3d276b6e	0.040873937
249	0x3e390897	0.18069683
250	0x3ceced2a	0.028921682
251	0x3db58e36	0.08865015
252	0xbe19b1be	-0.1500921
253	0x3f47f5cf	0.7810945
254	0xbdf672eb	-0.120336376
255	0xbe93592c	-0.2877897

linear2.bias f4 [3]
0	0x3f0de93c	0.5543401
1	0x3e046a35	0.1293114
2	0x3e183823	0.14865164
