model/model_ID1_score_50.pth (torch, 17995 bytes, 4 tensors)

linear1.weight f4 [256, 11]
0	0xbeb59a6c	-0.35469377
1	0x3f21423d	0.62991697
2	0xbe3854aa	-0.18001047
3	0x3e74678d	0.23867626
4	0x3e682770	0.22671294
5	0xbf052fff	-0.5202636
6	0x3e59e0ed	0.21277209
7	0xbe725e69	-0.23668827
8	0xbbc61c01	-0.006045819
9	0xbeb74659	-0.35795859
10	0xbd8fe428	-0.07025939
11	0xbecb08f4	-0.39655268
12	0x3f145d9a	0.57955325
13	0x3e882c35	0.26596227
14	0x3e7639cf	0.2404549
15	0x3dd3f248	0.10348946
16	0xbeb37196	-0.35047597
17	0x3eaf8e03	0.34288034
18	0xbe714b79	-0.23563947
19	0x3ebc6e7e	0.3680305
20	0xbe801dca	-0.25022727
21	0x3c83151a	0.016001273
22	0xbe8fe099	-0.28101042
23	0x3dd7ccd0	0.10537112
24	0x3dcf35ee	0.10117708
25	0xbbdc487e	-0.006722509
26	0x3d0da8ed	0.03458493
27	0xbec33c1c	-0.38131797
28	0xbee41d01	-0.44553378
29	0xbea68a39	-0.3252733
30	0x3eca4ad6	0.3951022
31	0xbee6f785	-0.45110717
32	0xbda84615	-0.08216492
33	0x3e05e263	0.13074641
34	0xbd50c5c2	-0.050969847
35	0xbe635335	-0.2219971
36	0xbe6c7255	-0.23090489
37	0x3dfd886a	0.123795345
38	0xbee82b21	-0.45345405
39	0x3e20509d	0.15655752
40	0x3e91d2aa	0.28481036
41	0x3e055d15	0.13023789
42	0x3f120157	0.57033294
43	0x3bf65129	0.0075169993
44	0xbeaa0fcd	-0.3321518
45	0x3ec6f4e9	0.38858727
46	0x3f041d5a	0.51607287
47	0x3e3534de	0.17695948
48	0xbe4e05f5	-0.2011946
49	0xbda2c4af	-0.07947671
50	0x3e0a9ae0	0.13535643
51	0x3cf39c2a	0.02973755
52	0xbe878a6a	-0.2647279
53	0x3e76a59e	0.24086615
54	0xbe2aecb9	-0.16691865
55	0x3e5b116f	0.21393369
56	0xbe9a17be	-0.3009624
57	0xbdcf4c88	-0.10122019
58	0xbe138110	-0.14404702
59	0x3ddb9209	0.10721213
60	0xbd33aff4	-0.043868974
61	0xbe0fe0bd	-0.14050575
62	0xbe077c80	-0.13231087
63	0xbe0a2ffe	-0.1349487
64	0xbe76082e	-0.24026558
65	0xbe5e6e63	-0.21721797
66	0xbdd6f340	-0.10495615
67	0x3cf0a899	0.029377269
68	0xbcaf8e62	-0.021430198
69	0x3efff7e1	0.49993804
70	0x3e89f948	0.26948
71	0xbe9d54bb	-0.30728707
72	0x398711f6	0.00025762588
73	0xbefaf970	-0.4901843
74	0xbe63fbe0	-0.22264051
75	0x3ed5d54d	0.41764298
76	0xbd1c25b5	-0.038121898
77	0xbe130321	-0.14356662
78	0xbd21054c	-0.039311692
79	0x3ec59d70	0.38596678
80	0xbd81b321	-0.06332994
81	0x3d65ed87	0.056134727
82	0xbe11bc38	-0.14231956
83	0x3dfc704c	0.123261064
84	0x3e72f69d	0.23726888
85	0xbe77ceec	-0.24200028
86	0x3c2585c2	0.010102691
87	0xbc75ca26	-0.015001809
88	0xbe91a5bb	-0.28446755
89	0xbeb5932b	-0.35463843
90	0xbe5928d4	-0.21206981
91	0xbe032f7e	-0.12811086
92	0xbeb69155	-0.35657755
93	0x3e48af54	0.19598132
94	0x3e98c2d1	0.29836133
95	0xbe894ac5	-0.26814857
96	0xbead7377	-0.33877155
97	0x3de84bc6	0.11342578
98	0x3d8bc849	0.06825311
99	0x3e2afcaf	0.16697954
100	0x3efe7a88	0.4970286
101	0x3e88ec25	0.26742664
102	0x3d8df35b	0.06931182
103	0xbea5ebfc	-0.32406604
104	0x3ce90173	0.028443074
105	0xbd3b6348	-0.04574898
106	0x3d9ba4ef	0.07599818
107	0x3e968e5e	0.29405493
108	0x3da344ba	0.07972093
109	0x3e393ad6	0.1808885
110	0xbe0faa0b	-0.1402971
111	0xbdca817c	-0.098879784
112	0xbd1df098	-0.038559526
113	0xbe2f36dd	-0.17110772
114	0xbd291b80	-0.04128599
115	0xbe6d612c	-0.231816
116	0xbd5eac28	-0.0543634
117	0xbdb78b48	-0.08962113
118	0xbdb008e2	-0.08595444
119	0x3e2652c4	0.1624251
120	0xbd48ba20	-0.049005628
121	0xbd4168b3	-0.04721899
122	0x3f0f784d	0.5604294
123	0xbc4f6eb4	-0.012660671
124	0x3e168d1a	0.14702263
125	0xbe657463	-0.2240768
126	0xbef40c4d	-0.47665635
127	0x3ea47d14	0.32126677
128	0xbefbb513	-0.49161586
129	0x3c900eeb	0.017585238
130	0xbeb651d7	-0.35609314
131	0x3c963672	0.018336508
132	0x3f00222e	0.50052154
133	0xbd574904	-0.052559868
134	0x3e7ccd9e	0.24687812
135	0x3dd598f6	0.104295656
136	0x3ea2dc0c	0.31808507
137	0xbea1f5c9	-0.31632832
138	0xbccc4cd2	-0.024938975
139	0x3e11876b	0.14211814
140	0xbe1be35a	-0.15223446
141	0x3f02e46c	0.51129794
142	0x3e934fdf	0.28771874
143	0xbe7ec757	-0.2488073
144	0x3d5b0f25	0.05348124
145	0xbe2a86b3	-0.16652946
146	0xbd96c1bc	-0.07361171
147	0xbe6688ed	-0.2251317
148	0x3d992144	0.07477048
149	0x3e1aeab7	0.15128599
150	0xbe4765bb	-0.19472401
151	0xbe209045	-0.15680034
152	0xbe5858f8	-0.21127689
153	0x3d4342c2	0.047671087
154	0x3e50a0ae	0.20373794
155	0x3e53c1b7	0.20679365
156	0xbede12fa	-0.43373853
157	0xbe54b110	-0.20770669
158	0xbe13fe4e	-0.14452478
159	0x3d0114a5	0.03151383
160	0x3ebf48f1	0.37360337
161	0xbea2c9d8	-0.3179462
162	0xbcb1cdcd	-0.021704579
163	0x3e741b0c	0.23838443
164	0xbe790624	-0.24318749
165	0xbe00dab9	-0.12583436
166	0xbda2d58e	-0.079508886
167	0x3ee5e51e	0.44901365
168	0x3e860481	0.2617531
169	0xbe9d4b42	-0.3072148
170	0x3da10628	0.07862502
171	0x3ead9e85	0.33910003
172	0x3c8bcf51	0.01706663
173	0xbeb7ca46	-0.3589651
174	0x3e30594c	0.17221564
175	0xbe58a5e4	-0.21157032
176	0x3db0fbfb	0.086418115
177	0x3e13758c	0.1440031
178	0xbf0ab0af	-0.5417585
179	0xbd8c4bc9	-0.06850392
180	0xbe970bc7	-0.29501173
181	0xbe8a62da	-0.27028543
182	0x3e91dfee	0.28491157
183	0xbe9a2974	-0.3010975
184	0x3e5add51	0.21373488
185	0xbccab2a0	-0.024743378
186	0xbebe38cb	-0.37152705
187	0xbe5c65a3	-0.21523146
188	0x3dd972a2	0.106175676
189	0x3daeec7d	0.085412
190	0x3ed53f22	0.4164973
191	0xbeb0bea3	-0.34520444
192	0xbe4c98af	-0.19980119
193	0xbe8820c5	-0.265875
194	0x3ed41c6e	0.4142794
195	0xbe75f451	-0.2401898
196	0xbeb1f6d4	-0.34758627
197	0xbe77ba1f	-0.24192093
198	0xbe81d430	-0.253572
199	0x3d927f01	0.0715313
200	0x3e4c39d5	0.19943936
201	0x3da64748	0.081190646
202	0xbdc0f6de	-0.09422086
203	0xbdfaf660	-0.122540236
204	0xbdef95da	-0.11698504
205	0x3d70e0be	0.05880808
206	0xbe709b0a	-0.23496643
207	0xbe945fee	-0.2897944
208	0xbe9842a5	-0.29738346
209	0xbec3f5be	-0.38273424
210	0x3eea6725	0.45781818
211	0xbe0fcad6	-0.1404222
212	0xbe3c6354	-0.18397266
213	0x3dc4e921	0.09614778
214	0x3e66e288	0.22547352
215	0xbd223606	-0.039602302
216	0xbcc040ce	-0.023468401
217	0xbe7bd7e3	-0.24594073
218	0xbd8e81f1	-0.06958378
219	0x3d078f65	0.033095736
220	0x3ea10c17	0.31454536
221	0x3f08e72c	0.5347774
222	0x3df10a83	0.11769583
223	0xbeb53aa5	-0.35396305
224	0x3cb76af0	0.022389859
225	0xbe8b2c58	-0.2718227
226	0xbe67017d	-0.22559161
227	0x3e3f3957	0.18674217
228	0xbde33f15	-0.11096016
229	0x3eacaf47	0.33727476
230	0x3ddac9de	0.10683034
231	0x3e64362b	0.22286288
232	0xbd3d8f98	-0.04627952
233	0xbec96062	-0.39331347
234	0xbeb70247	-0.35743925
235	0x3e8d169d	0.27556315
236	0x3e484d0e	0.19560644
237	0xbdbc28ca	-0.091874674
238	0x3dc23e83	0.094845794
239	0xbe71b7e7	-0.2360531
240	0x3eb1367c	0.3461188
241	0xbea7b56f	-0.3275561
242	0xbe048922	-0.12942937
243	0x3d68d187	0.056840446
244	0xbeaf902a	-0.34289676
245	0xbf103b7c	-0.56340766
246	0x3ed9dab9	0.42549685
247	0x3e669755	0.22518666
248	0xbe07b2a9	-0.13251747
249	0xbccacb3d	-0.024755115
250	0x3e8b15d1	0.27165082
251	0x3e0111e3	0.1260448
252	0xbf0e6599	-0.55623776
253	0x3da96bf0	0.082725406
254	0x3f4d93dc	0.8030374
255	0xbef28b8d	-0.47372094

linear1.bias f4 [256]
0	0x3db98fac	0.09060606
1	0xbe26a728	-0.16274703
2	0xbcb1a3de	-0.021684583
3	0xbe88d13a	-0.26722127
4	0xbcd54c99	-0.026037501
5	0xbe9d40d9	-0.30713537
6	0xbade7e92	-0.0016974977
7	0x3d59087b	0.052986603
8	0x3f5b09b2	0.8556167
9	0xbe99e259	-0.30055502
10	0xbe6754e8	-0.22590983
11	0x3e56c59f	0.20973824
12	0xbe934e82	-0.28770834
13	0xbe9e1959	-0.30878714
14	0xbe8edf4f	-0.27904746
15	0x3d9a74cd	0.07541809
16	0x3d632424	0.05545439
17	0xbe1b0c05	-0.15141304
18	0xbeb4c8b7	-0.35309383
19	0xbe114097	-0.14184795
20	0xbe00d1c5	-0.1258002
21	0x3d68ea97	0.056864347
22	0x3e9e1aed	0.30879918
23	0x3d168a1c	0.036752805
24	0xbe1ce482	-0.15321544
25	0xbe5cd12d	-0.21564169
26	0x3dce78b9	0.1008162
27	0xbdd728e6	-0.10505848
28	0xbdb543a9	-0.08850796
29	0xbe85bcd6	-0.26120633
30	0x3b6e4216	0.0036355308
31	0xbe045fee	-0.1292722
32	0xbeacf836	-0.3378312
33	0xbe4a25f1	-0.19741036
34	0x3e1bff27	0.15234052
35	0x3d999447	0.07498985
36	0xbe299d76	-0.16563973
37	0xbcf03824	-0.029323645
38	0xbe67910d	-0.22613926
39	0xbe3fb848	-0.18722641
40	0xbe1a463f	-0.1506586
41	0xbe979d71	-0.29612306
42	0x3d7ac01f	0.061218377
43	0xbd21ffd0	-0.039550602
44	0x3b80f5dc	0.0039355587
45	0xbe1018f6	-0.14072022
46	0xbda1a709	-0.078931876
47	0xbd4d11ec	-0.05006592
48	0xbe91e21b	-0.28492817
49	0xbe19a2b7	-0.15003477
50	0x3d5f0581	0.05444861
51	0x3e187278	0.14887416
52	0x3e6fd7a7	0.23422109
53	0x3f23c616	0.6397413
54	0xbe2a062a	-0.16603914
55	0xbec1f6ec	-0.378837
56	0xbe7b8bd3	-0.24565057
57	0xbc255a9a	-0.010092402
58	0xbde150d1	-0.11001743
59	0x3e04c44b	0.12965505
60	0xbd3df81d	-0.046379197
61	0xbe6342c7	-0.22193442
62	0xbe5232c8	-0.20527184
63	0x3d71e6a7	0.059057858
64	0xbd3bbbfb	-0.04583357
65	0xbdcc02e0	-0.09961486
66	0xbe720c52	-0.23637512
67	0x3c1e0250	0.009644106
68	0xbe9a1166	-0.300914
69	0xbda03aaa	-0.07823689
70	0xbe2bd6da	-0.16781178
71	0x3d343165	0.04399242
72	0xbebd7299	-0.37001494
73	0xbdb84157	-0.089968376
74	0xbe3e8e4e	-0.18608972
75	0xbdedce9f	-0.116116755
76	0xbed676a2	-0.41887385
77	0x3e9dda33	0.30830535
78	0xbdb9fb6a	-0.090811566
79	0x3caf7732	0.021419141
80	0xbd7d28e1	-0.061806563
81	0x3bdb6313	0.00669516
82	0x3f1b6888	0.6070638
83	0x3e0ed195	0.13947137
84	0xbecdabe5	-0.40170208
85	0xbe7ec247	-0.24878798
86	0x37be8586	2.2711942e-05
87	0xbe71f6bf	-0.23629282
88	0xbed6ca0f	-0.41951033
89	0xbe17b473	-0.1481493
90	0x3f146deb	0.5798022
91	0xbe81a118	-0.25318217
92	0x3dbbcb26	0.09169607
93	0xbe15552f	-0.14583276
94	0xbd701bca	-0.05862025
95	0x3d84384b	0.064560495
96	0x3eeb90ff	0.4600906
97	0x3dc698f6	0.09697144
98	0x3d9cdb58	0.07659024
99	0xbe9039f3	-0.28169212
100	0xbe879695	-0.26482072
101	0x3f658dc9	0.8966947
102	0x3e719b4b	0.23594396
103	0xbe0d581d	-0.13803144
104	0xbd5e5cd5	-0.05428775
105	0xbea02387	-0.31277105
106	0xbd81e397	-0.063422374
107	0x3e0d0b26	0.13773784
108	0xbe31e402	-0.17372134
109	0xbdbbafa3	-0.091643594
110	0x3ee00dd4	0.4376055
111	0xbce6b1e9	-0.028161006
112	0xbdcf7764	-0.10130194
113	0xbe1c37ce	-0.15255663
114	0x3ddff5ff	0.10935592
115	0xbe1a8018	-0.15087926
116	0xbe808d71	-0.2510791
117	0xbdc64f64	-0.09683111
118	0xbe0daada	-0.13834706
119	0xbe4767bc	-0.19473165
120	0x3ee12873	0.43976173
121	0xbd989d9c	-0.074519366
122	0x3ddc89ce	0.10768472
123	0x3ec1c918	0.37848735
124	0xbcf273c4	-0.029596217
125	0x3d65caee	0.056101732
126	0x3f05f0c1	0.52320486
127	0x3d03f2b7	0.032213893
128	0x3ef2e1d2	0.47437912
129	0xbe87b250	-0.2650323
130	0x3ee19a55	0.44063058
131	0xbe376fb8	-0.17913711
132	0xbe0281ab	-0.12744777
133	0xbd6b4836	-0.057441913
134	0x3ed1e59d	0.40995494
135	0xbe5b7def	-0.21434759
136	0xbe5f5a4f	-0.21811794
137	0xbe0408d0	-0.12893987
138	0xbe0db239	-0.13837518
139	0xbe25a967	-0.16177903
140	0xbe2537d7	-0.16134582
141	0x3dc1cfc2	0.09463455
142	0x3e4d98bc	0.20077795
143	0x3dfbf548	0.12302643
144	0x3e29c003	0.16577153
145	0xbedafb7f	-0.4277
146	0xbd92d24b	-0.071690165
147	0xbe51778a	-0.20455757
148	0x3e1b8f52	0.15191391
149	0xbe0cfc74	-0.13768178
150	0xbd82a67e	-0.06379412
151	0xbe2217f2	-0.15829447
152	0xbe23b525	-0.1598707
153	0xbec3d198	-0.38245845
154	0x3dfa582c	0.12223849
155	0x3c634df4	0.013873566
156	0xbe392d10	-0.18083596
157	0xbe3c22ba	-0.18372622
158	0x3e3c846a	0.18409887
159	0xbeed6cb8	-0.46372008
160	0xbde9fbf8	-0.11425012
161	0xbd83f871	-0.06443871
162	0x3e598500	0.21242142
163	0xbe83c7a7	-0.2573826
164	0xbe869dbf	-0.26292226
165	0xbe058a63	-0.13041072
166	0x3d9b0c23	0.07570674
167	0xbd9ff208	-0.07809836
168	0x3e94bb3f	0.29049107
169	0x3e74a38b	0.23890512
170	0xbd79c03d	-0.06097435
171	0xbe13d6b3	-0.1443737
172	0xbecfe250	-0.4060235
173	0x3d5b14b0	0.053486526
174	0x3e3f26ea	0.18667188
175	0x3ed29940	0.41132545
176	0xbe1582cf	-0.14600681
177	0xbd388516	-0.045048796
178	0x3de27c9c	0.110589236
179	0x3e399f8e	0.18127272
180	0xbc328c73	-0.0108977435
181	0x3e1b5035	0.15167315
182	0xbe03a483	-0.12855725
183	0xbd117210	-0.03550917
184	0x3e496229	0.19666351
185	0xbdc07f15	-0.09399239
186	0xbe336096	-0.17517313
187	0xbbd515bc	-0.006502835
188	0xbc80edc1	-0.01573837
189	0xbea92265	-0.33034053
190	0x3e02ba4f	0.12766384
191	0xbe5f21cd	-0.21790238
192	0xbd849878	-0.064743936
193	0x3f43df9c	0.76513076
194	0x3de5a7e2	0.11213662
195	0xbe7e282c	-0.24820012
196	0xbd8d7988	-0.06907946
197	0xbdc6e7b9	-0.09712166
198	0x3dbc4614	0.09193054
199	0xbd9362f1	-0.07196606
200	0xbd8c80f1	-0.06860531
201	0xbddbff27	-0.10742026
202	0xbd4afcf4	-0.04955764
203	0xbe88aced	-0.26694432
204	0x3d94c853	0.07264771
205	0xbeb4d2fb	-0.35317215
206	0x3e8b9802	0.2726441
207	0x3e31fac8	0.17380822
208	0xbd6c1a7d	-0.05764245
209	0xbe43c7bf	-0.19119166
210	0x3dfbba1b	0.12291356
211	0xbee3c177	-0.4448354
212	0xbe4d77b6	-0.20065197
213	0x3e7a2a0c	0.24430102
214	0x3ebe7b95	0.3720366
215	0xbd0be6cf	-0.034155663
216	0x3dc15c3f	0.09441423
217	0xbe6e4f89	-0.23272528
218	0xbd8c4fb7	-0.06851142
219	0x3e48f658	0.19625223
220	0xbc345cbf	-0.0110084405
221	0x3d298ed1	0.041395966
222	0x3d088405	0.03332903
223	0x3e4a3ad7	0.19749008
224	0xbe482211	-0.19544245
225	0x3ee377b3	0.4442726
226	0xbe7c44ee	-0.2463567
227	0xbd542d64	-0.0518011
228	0x3e1f5903	0.15561299
229	0xbe55cd57	-0.20879112
230	0xbd0361d2	-0.03207571
231	0xbe32b5d3	-0.17452173
232	0xbe0284b9	-0.12745942
233	0xbe658b74	-0.22416478
234	0xbe8eaa00	-0.27864075
235	0x3be9cc0a	0.007134919
236	0xbd3649b1	-0.04450387
237	0xbe544efc	-0.20733255
238	0xbec7e3a9	-0.39040878
239	0x3ebb32ea	0.36562282
240	0x3e158d03	0.14604573
241	0x3e0f642a	0.14003053
242	0x3f15d866	0.5853332
243	0xbd271601	-0.04079247
244	0xbc13584b	-0.008993219
245	0x3de0a9cd	0.10969887
246	0x3ea80c30	0.32821798
247	0xbd6af082	-0.057358272
248	0xbe4aca6d	-0.19803782
249	0xbe38fd2c	-0.18065327
250	0xbea7a43a	-0.32742482
251	0xbe8acc69	-0.27109078
252	0xbe18fe0d	-0.14940663
253	0xbd182c75	-0.037151773
254	0xbde41407	-0.111366324
255	0x3dba2c76	0.090905115

linear2.weight f4 [3, 256]
0	0x3e4e0fae	0.20123169
1	0x3e18ed10	0.14934182
2	0x3e1a9ede	0.15099666
3	0xbea0cfd3	-0.31408557
4	0x3e35bb16	0.17747149
5	0xbcde2cdd	-0.027121002
6	0xbf3eae40	-0.74484634
7	0x3cecf814	0.028926887
8	0x3ea8996d	0.32929555
9	0xbd9392c7	-0.0720573
10	0x3bf7d950	0.0075637475
11	0x3db55af5	0.08855239
12	0xbee7e92e	-0.4529509
13	0x38821141	6.202097e-05
14	0xbebbbfce	-0.36669773
15	0x3e782116	0.24231371
16	0xbe8b246d	-0.27176228
17	0x3ee04e5f	0.43809792
18	0xbc3eec96	-0.011653086
19	0x3b942107	0.0045205387
20	0xbe0fd4dc	-0.14046043
21	0xbc8751d6	-0.016518515
22	0x3e90d37b	0.28286347
23	0x3dce9569	0.100870915
24	0xbe88f1c3	-0.2674695
25	0xbdfb6470	-0.12275016
26	0x3f109d54	0.56490064
27	0xbe123391	-0.14277484
28	0xbd55fe86	-0.052244686
29	0xbeec07aa	-0.46099597
30	0x3ea3e06b	0.32007155
31	0xbe2372c9	-0.15961756
32	0xbe66b7da	-0.22531071
33	0xba95fb7e	-0.0011442748
34	0xbe50dccf	-0.20396732
35	0x3d8a58ab	0.06755193
36	0x3b18865a	0.002327344
37	0xbd2e54b0	-0.042561233
38	0xbef26d39	-0.47348955
39	0xbd53084d	-0.051521588
40	0x3d2c423a	0.042055346
41	0xbedf0c71	-0.4356418
42	0xbebc9a8c	-0.3683666
43	0x3e75f667	0.24019776
44	0xbc93cdac	-0.018042408
45	0x3d55a263	0.052156817
46	0xbd97a27b	-0.074040376
47	0x3d61fff4	0.055175737
48	0xbd69ed52	-0.057111092
49	0x3e4a7d1e	0.19774291
50	0x3ea84bf3	0.32870445
51	0x3e24cff4	0.16094953
52	0x3e890293	0.26759776
53	0x3e9946f5	0.29936948
54	0xbeda15b6	-0.4259469
55	0xbeceed4c	-0.40415418
56	0xbe7ed628	-0.24886382
57	0x3d3d42c8	0.046206266
58	0xbf1a2124	-0.6020682
59	0xbef16804	-0.4714967
60	0x3eb6b410	0.35684252
61	0xbda40f8d	-0.080107786
62	0xbd2d80db	-0.042359214
63	0x3e67b062	0.22625878
64	0xbecb2337	-0.39675304
65	0x3d5faea8	0.054609925
66	0xbd4cc9e7	-0.049997237
67	0x3e60bd83	0.21947293
68	0x3d482773	0.048865747
69	0x3f154f17	0.58323807
70	0xbdf385f3	-0.11890783
71	0x3e30be19	0.17260017
72	0x3ce30f8c	0.027717374
73	0x3c4e4ee7	0.012592054
74	0xbf063d2b	-0.52437085
75	0x3ec46831	0.38360742
76	0x3c7dbcf7	0.015486947
77	0x3eb26f9a	0.3485077
78	0xbc51d7d5	-0.012807806
79	0xbe61ac55	-0.22038396
80	0xbe84667a	-0.25859433
81	0x3d3ccb3b	0.046092253
82	0x3ed813ca	0.42202598
83	0xba3d3733	-0.0007218003
84	0x3cf6052d	0.030031765
85	0xbe91c30f	-0.2846913
86	0xbe0b64da	-0.1361269
87	0x3bd60860	0.00653176
88	0xbead26c4	-0.33818638
89	0xbc62a3f5	-0.013833036
90	0x3ef1c928	0.47223783
91	0xbf04ed6a	-0.51924765
92	0x3e32c571	0.1745813
93	0xbe791d05	-0.24327476
94	0xbcf936b4	-0.030421592
95	0x3eb2ef38	0.34948134
96	0x3e933269	0.28749397
97	0x3eff5d9c	0.49876106
98	0x3ed8d7a9	0.42352036
99	0x3c3fdf1c	0.011710908
100	0x3c82d0a4	0.015968628
101	0x3e3d4484	0.18483168
102	0x3ea23189	0.31678417
103	0x3cb40065	0.021972844
104	0xbeeca9a9	-0.4622319
105	0x3d378be2	0.044811137
106	0x3e3a77d1	0.18209769
107	0xbe54e81a	-0.20791665
108	0x3e83cb3d	0.25740996
109	0xbf042cbc	-0.5163076
110	0x3e7c3269	0.24628605
111	0x3c1b5ca0	0.009482533
112	0xbdee084f	-0.116226785
113	0xbebd29e7	-0.3694603
114	0x3cd91877	0.026500924
115	0xbe65f64c	-0.22457236
116	0xbcb4f776	-0.022090655
117	0xbea1a8b2	-0.31574017
118	0xbef60df4	-0.4805752
119	0xbed54830	-0.41656637
120	0x3eba3c03	0.3637391
121	0x3d7ac827	0.061226036
122	0xbea8acbc	-0.32944286
123	0x3eab2510	0.33426714
124	0x3ca4425a	0.02005117
125	0xbeb2f875	-0.34955183
126	0x3e2753fb	0.1634063
127	0xbc6ff80f	-0.014646544
128	0x3e80d34e	0.25161213
129	0xbdb2af30	-0.087248206
130	0x3e876709	0.26445797
131	0xbd2b500b	-0.04182438
132	0xbe1c803f	-0.15283297
133	0x3cc72008	0.024307266
134	0x3e685e71	0.22692277
135	0xbe724e48	-0.23662674
136	0xbd9d1588	-0.076701224
137	0x3e876242	0.26442152
138	0xbead4e9e	-0.33849043
139	0xbe4d8f41	-0.20074178
140	0xbdc3240b	-0.09528359
141	0x3c5f0aa5	0.013613378
142	0x3da2aa66	0.07942657
143	0x3d341b17	0.043971147
144	0x3ea00d89	0.31260327
145	0xbe545655	-0.20736058
146	0xbec7759e	-0.38956922
147	0xbe67adf7	-0.22624956
148	0xbeba45ea	-0.36381465
149	0xbea46fca	-0.32116538
150	0xbeeccc2f	-0.4624953
151	0xbe91ce36	-0.2847764
152	0xbead8fbc	-0.33898723
153	0xbe8c47b2	-0.2739845
154	0x3db2696f	0.08711516
155	0x3dc936b8	0.0982489
156	0xbd6e4508	-0.058171302
157	0xbf0806bb	-0.5313527
158	0x3e3a7125	0.18207224
159	0xbe020bc8	-0.12699807
160	0x3ccfecd7	0.025381489
161	0xbd15a3bc	-0.036533102
162	0x3f073ab8	0.5282397
163	0xbe076e0a	-0.1322557
164	0x3c7fe72c	0.0156190805
165	0xba95c75b	-0.001142721
166	0x3e98051c	0.29691398
167	0x3e1f22d3	0.15540628
168	0x3e86a32c	0.26296365
169	0x3d66a4b6	0.056309424
170	0xbe2db879	-0.16964902
171	0x3e556bb4	0.20841867
172	0xbe4ea481	-0.20179941
173	0xbe44b82a	-0.19210878
174	0x3e72e745	0.23721035
175	0x3de1ca7d	0.1102495
176	0xbe7fd5f6	-0.24983963
177	0xbe5f905f	-0.21832417
178	0x3d397369	0.04527608
179	0xbef277b6	-0.47356957
180	0xbd808d1b	-0.06276914
181	0x3e4e89b3	0.20169716
182	0x3ed86d5f	0.42270944
183	0xbedd612a	-0.43238193
184	0x3de0e7fe	0.10981749
185	0xbe98e33c	-0.29860866
186	0xbcfd1284	-0.030892618
187	0x3ee6e9e5	0.45100322
188	0xbe04520a	-0.1292192
189	0xbe222d7f	-0.15837668
190	0x3db58fdd	0.0886533
191	0x3ea76996	0.32697743
192	0xbe9f74af	-0.3114371
193	0x3ecd42ef	0.4009013
194	0xbeed2144	-0.46314442
195	0xbd80484b	-0.06263789
196	0xbda73aa4	-0.08165482
197	0x3ad76c9a	0.0016435564
198	0x3e813427	0.25235102
199	0x3dbda3bb	0.09259745
200	0xbdbe157c	-0.092814416
201	0xbeba522e	-0.36390823
202	0x3db163e6	0.08661632
203	0xbef69560	-0.4816084
204	0x3dace970	0.08442962
205	0x3d387fb6	0.04504367
206	0x3df52633	0.119701765
207	0x3e718017	0.23584019
208	0xbe617464	-0.22017056
209	0xbe4d7b55	-0.20066579
210	0x3e90a230	0.2824874
211	0xbe1b121d	-0.15143628
212	0xbe029997	-0.12753902
213	0x3f02eb63	0.5114042
214	0x3eafc9f0	0.34333754
215	0xbf085288	-0.5325093
216	0x3dd642e8	0.1046198
217	0xbde79a90	-0.11308777
218	0xbdd19b31	-0.102346785
219	0x3d65066e	0.055914335
220	0xbf37a614	-0.7173779
221	0x3defa274	0.11700907
222	0xbd71c485	-0.059025306
223	0x3db2de49	0.08733804
224	0xbe27f94b	-0.16403691
225	0x3e95e3c0	0.29275322
226	0xbcbbb8a9	-0.022915201
227	0xbc0b945c	-0.008519258
228	0x3e1f086b	0.15530555
229	0xbd823364	-0.06357458
230	0xbe39491b	-0.18094294
231	0xbe72a650	-0.23696256
232	0xbe69baa9	-0.22825111
233	0xbee0e3af	-0.4392371
234	0xbc6bbd09	-0.014388331
235	0xbeb96fa2	-0.36217982
236	0xbe6a4b2a	-0.22880235
237	0xbc84dfe5	-0.016220042
238	0xbe4a1b95	-0.19737084
239	0x3e97c4ad	0.2964224
240	0x3db46def	0.08810031
241	0x3d5afdfc	0.053464875
242	0x3ec7ade2	0.3899985
243	0x3c20c5e9	0.00981281
244	0x3ee8f924	0.4550258
245	0xbeea66bf	-0.45781514
246	0x3e734e9a	0.23760453
247	0xbbb95e30	-0.00565698
248	0x3d96062b	0.07325395
249	0x3e829ac2	0.25508696
250	0xbdc2c543	-0.09510281
251	0xbcdcc92d	-0.026951397
252	0xbda6a8fd	-0.08137701
253	0xbc4e90fc	-0.012607809
254	0xbecbcc03	-0.39804086
255	0x3e7d73e9	0.24751247

linear2.bias f4 [3]
0	0x3e5e0b33	0.2168396
1	0x3d6777e4	0.05651082
2	0x3d8e50d0	0.069490075
