model/model_ID4_score_52.pth (torch, 17995 bytes, 4 tensors)

linear1.weight f4 [256, 11]
000000 c7 20 cf 3e 94 8a 17 be a2 eb ef 3e dd f1 bf 3d
       0.40454695 -0.14798957 0.4685946 0.09372304
000010 79 f2 a3 be 86 fe 29 3e af 02 dc be d5 4e 03 be
       -0.3202093 0.16600999 -0.42970797 -0.12823041
000020 98 75 b8 3e e6 3d e4 bd 93 82 a6 3e b1 92 0e be
       0.36027217 -0.11144619 0.32521495 -0.13923146
000030 6f e8 89 3d cf eb c1 3d 59 9d ca 3e 7a f0 86 be
       0.06733786 0.09468805 0.39573172 -0.26355344
000040 47 8e 04 bf e8 d2 d9 3e f8 65 81 3e 0a 46 cb be
       -0.517796 0.4254372 0.25273108 -0.39701873
000050 86 9c de be 53 a3 90 3e 3c 01 d9 3d 4e f6 59 3e
       -0.43478793 0.28249606 0.105959386 0.21285364
000060 60 3a 5c 3c b0 95 37 be 59 15 25 be 92 84 03 3d
       0.013441652 -0.17928195 -0.16121425 0.03210885
000070 8a c0 aa bd 82 ab 0e be b6 f5 14 be 79 b5 c0 3c
       -0.08337505 -0.13932613 -0.14546856 0.023524033
000080 f9 6d cf bd 4e d0 d7 3e 1a 1d 44 bd 31 f3 18 be
       -0.101283975 0.4215111 -0.047879316 -0.1493652
000090 c4 f8 7e be f7 66 bc be ae a9 8b 3d dc da a0 3e
       -0.24899584 -0.36797306 0.06819473 0.31416976
0000a0 fd 41 a4 3e 16 61 1a be be e8 b1 bd bf 32 61 be
       0.32081595 -0.15076098 -0.0868697 -0.21992014
0000b0 e8 6c 92 3d b3 0a fa 3e aa b8 c8 be 71 07 e0 bc
       0.071496785 0.48836288 -0.39203387 -0.027347298
0000c0 3f 4f c6 3e 04 55 48 be 29 1c 9c 3e 70 fb fe be
       0.38732335 -0.19563681 0.30490234 -0.49801207
0000d0 e8 a5 14 bc 3e 55 cb bd 81 39 33 3e fd 58 f7 3e
       -0.009072758 -0.09928368 0.17502405 0.4831008
0000e0 04 d6 93 bd db f6 92 be fc e7 99 3e bb 2e 30 bc
       -0.072185546 -0.2870396 0.30059803 -0.010753329
0000f0 ad 9d b6 3e 69 84 de be 1a 93 4f be ef d2 94 be
       0.35667172 -0.43460396 -0.20270959 -0.2906718
000100 e3 cf 9e be 6d f8 fe 3e 7b 8d cb be 0a eb a0 3b
       -0.3101798 0.4979891 -0.3975638 0.0049108313
000110 d1 83 da 3e 7f b8 3c bd 3a ee a6 be 20 a3 8d 3c
       0.42678693 -0.046074387 -0.32603627 0.017289698
000120 0f 2c eb bd 31 ee ae bc fa 5c 10 be a5 57 fd bc
       -0.11483013 -0.021353813 -0.14097968 -0.030925581
000130 2c 23 24 bd f8 52 93 3c f3 bc 20 be ae ba 5e be
       -0.040072605 0.017983899 -0.15697078 -0.217509
000140 d6 16 a0 3d 19 50 ce 3e 1b ef 9e 3e f3 e8 0e bf
       0.078168556 0.40295485 0.31041798 -0.558242
000150 e1 ea 47 3e 07 1d a9 be 5e 7f 9b bd e9 f3 2a bf
       0.19523193 -0.3302996 -0.07592653 -0.6677843
000160 b3 04 eb be f2 fe 6b 3e fc f0 23 be e9 33 78 be
       -0.45902023 0.23046473 -0.16009897 -0.24238552
000170 60 3f 4d be b7 e7 42 be bc 25 48 be f4 0a a0 bd
       -0.20043707 -0.19033705 -0.19545645 -0.07814589
000180 21 82 dd bd c9 37 e0 bd 3c 7a 11 bb ac 9b ca 3e
       -0.10815836 -0.1094814 -0.0022198102 0.39571893
000190 96 2c 53 3e 22 77 9b bd 0b ad 9f bd 1c cd 34 be
       0.20622477 -0.07591082 -0.07796677 -0.17656368
0001a0 60 88 14 3e c4 01 0f be 62 e4 fc 3d 41 1d 98 3e
       0.14505148 -0.13965517 0.12348248 0.2970982
0001b0 e0 88 17 be 5d 57 e1 3d c5 f4 97 3e aa 90 c1 3e
       -0.14798307 0.11002991 0.29678932 0.37805682
0001c0 dc 3b 92 be 4e 43 e7 be a3 b7 39 bc 27 52 b6 3e
       -0.28561294 -0.45168537 -0.011335286 0.35609552
0001d0 bb 1f 67 3e 93 8c fb 3e 75 a7 76 3d 01 b9 bd be
       0.22570698 0.49130687 0.060218293 -0.3705521
0001e0 d6 68 aa bd ea a8 03 3e 22 19 9a bd 06 ef 2c 3f
       -0.08320777 0.12857404 -0.07524325 0.6755222
0001f0 98 1c a5 be c9 ef b7 3c e7 21 a9 be c1 61 e4 3e
       -0.32248378 0.022453206 -0.33033678 0.4460583
000200 4f 52 f3 bc 0f 5a 00 bf 58 34 ba be 10 90 b6 3e
       -0.029702334 -0.5013742 -0.3636806 0.35656786
000210 4f c3 01 3f 6e 50 0b bf 73 43 11 3d e5 c5 90 be
       0.5068864 -0.544196 0.035464715 -0.28275982
000220 fc 31 0f be 9f 83 12 3e 20 2c 5c 3d 5e b4 00 3f
       -0.13983911 0.14308022 0.05375302 0.5027522
000230 d9 d7 3d be 8b 3e 4f be 1d 44 c6 3d 92 1d c3 be
       -0.1853937 -0.20238702 0.0968096 -0.38108498
000240 42 99 dc 3d 80 78 02 3f a6 e3 9b be ac 25 96 3e
       0.10771419 0.5096512 -0.3044712 0.29325616
000250 b2 72 68 3e 87 72 8c 3d 1e bc d9 be ff 13 f3 bc
       0.22700003 0.06857782 -0.42526335 -0.02967262
000260 7c 76 0c bd da 94 08 3e 32 71 7a bd 25 86 d7 3e
       -0.034292683 0.13338032 -0.061143108 0.42094532
000270 d9 78 dc 3d 2b 02 2b 3d e9 a0 00 bf ea 29 f7 be
       0.10765237 0.041750114 -0.5024553 -0.48274165
000280 02 c6 bb 3d ad 6d 14 be 26 5e f7 3e bf a1 ba 3e
       0.09168626 -0.14494963 0.48314017 0.36451527
000290 bb f5 12 be 85 d9 0e 3f 4d 6e d5 bd 18 41 52 bd
       -0.14351551 0.5580066 -0.10421429 -0.05133161
0002a0 3e a7 8d 3e 44 98 75 be c1 ae d3 3b ee 93 d3 bd
       0.27666658 -0.23983866 0.0064600413 -0.1033095
0002b0 9c 7c 6d be 95 a6 2c bd b7 65 8c bd d6 f1 95 3d
       -0.23192066 -0.042151053 -0.06855338 0.07321517
0002c0 69 e1 95 3d 21 cb 5d be 89 18 29 3f 46 17 79 3e
       0.07318384 -0.21659519 0.6605306 0.24325284
0002d0 5b c5 e3 bd c4 be 52 be fb 84 60 3d e2 a1 af be
       -0.11121627 -0.20580584 0.05481432 -0.34303194
0002e0 e7 ac 53 3d 90 7a e1 3d e2 49 5d be b5 87 0e be
       0.051678564 0.11009705 -0.21610215 -0.13918956
0002f0 b5 e2 07 3f ba bb d7 be da 22 a0 be b1 05 9b 3e
       0.530803 -0.42135412 -0.3127659 0.3027778
000300 25 70 bd bd 9c d0 98 3e fc 27 25 bf 79 c7 9c bd
       -0.092499055 0.29846656 -0.64514136 -0.07655234
000310 fa 87 47 3e ca cd 68 3e 5e 13 7f be 9c 89 b1 3d
       0.19485465 0.22734752 -0.24909732 0.08668825
000320 d7 7a 88 3e c4 4a 85 3e 41 6f 83 3d 63 7a bb be
       0.2665622 0.26033604 0.064177044 -0.3661681
000330 2a 5f 4c be aa a6 f9 3d 9e cf 83 3e 04 b3 37 be
       -0.19958177 0.12189992 0.25744337 -0.17939383
000340 82 25 a5 be 9b 03 d9 3e 6c 70 1a bf 7a a2 16 3f
       -0.3225518 0.42385563 -0.6032779 0.5884167
000350 a4 7b 6d bd 11 88 36 3a 5c ca c0 3d 90 86 39 bc
       -0.05797924 0.00069630245 0.09413597 -0.011323586
000360 d6 f6 aa 3e 51 a5 9e 3e 19 b8 4b 3d 80 11 21 bd
       0.33391446 0.309855 0.049736116 -0.03932333
000370 38 4c 73 3e 5b 97 13 3d eb 65 87 bd 4f 4b b5 bc
       0.23759544 0.036033016 -0.06611236 -0.022130636
000380 24 c0 58 bd 13 7e 1e be 5d f3 5e 3d 1c 7d 23 3e
       -0.052917615 -0.15477781 0.054431308 0.15965694
000390 db a3 e0 3d 81 9d 42 3d 96 31 12 bd fe b7 60 3c
       0.10968753 0.04751349 -0.03569182 0.013715742
0003a0 96 53 6a bb c6 3e bd be f6 9b 87 be 07 82 1e bf
       -0.0035755388 -0.36961955 -0.26486176 -0.61917156
0003b0 19 40 a0 3d 36 08 bf 3e 10 6c 8d 3e 8e 51 25 3f
       0.07824726 0.37310952 0.27621508 0.6457757
0003c0 ab 51 68 bd d9 54 a9 be 9a 50 9b bd 5d 46 6f be
       -0.05671851 -0.33072546 -0.07583733 -0.23366685
0003d0 9c 0e 94 3c 89 c4 9d 3e f7 62 9e be 39 53 45 3e
       0.018073373 0.30814007 -0.3093488 0.19270028
0003e0 c5 80 c2 be e5 cf 76 3e ac 43 c2 be 96 74 c8 be
       -0.37988868 0.24102743 -0.37942255 -0.39151448
0003f0 bc 57 e5 be ea 9e ba 3c d9 d2 06 3f 4b 6a 84 be
       -0.447935 0.022780854 0.5266548 -0.25862345

linear1.bias f4 [256]
000000 2c bc b5 bd 66 ea 37 3d b2 b7 95 be 82 b3 8a bd
       -0.088737816 0.044901274 -0.2924171 -0.0677252
000010 2e ba 59 3e f9 4f d8 bd e6 11 2e 3e 3a 61 b9 3e
       0.21262428 -0.105621286 0.16999015 0.3620699
000020 7b 83 07 bc d6 82 4a be 3f 5b 16 be 52 d1 d0 bd
       -0.0082710935 -0.19776472 -0.14683245 -0.10196175
000030 ac 68 e1 bd c9 d7 45 3e 80 84 a2 bd 98 6e 06 3c
       -0.11006293 0.19320597 -0.079354286 0.008205079
000040 77 a3 87 3b d7 d2 cd 3e 2a 20 8b bd 05 ac 2c be
       0.0041393596 0.4019992 -0.06793244 -0.16862495
000050 de ae 87 be 94 a5 56 bd 65 79 4d 3d f2 8a 4d 3e
       -0.265006 -0.052404 0.0501646 0.20072535
000060 cd c4 02 3e c0 3c 5d be 74 9d a9 bd 47 6b a5 be
       0.12770386 -0.21605206 -0.08281985 -0.3230841
000070 58 0f ac bd e1 56 26 be 83 77 12 be 50 dd 87 3d
       -0.08401364 -0.16244079 -0.14303403 0.06634009
000080 e8 ca 6c be d5 95 8d 3e c2 70 02 3e ea 3d 2d bd
       -0.23124278 0.27653375 0.12738326 -0.042295374
000090 22 a1 0a be 79 ee a0 3c ae d9 33 be d1 95 8f bd
       -0.1353803 0.019644963 -0.17563507 -0.07010997
0000a0 e8 9e 54 be 2a 6c e5 bd 68 7b 43 3e 05 5f b4 be
       -0.20763743 -0.11202271 0.19090044 -0.35228744
0000b0 03 df fd bd e1 53 5b bd 07 ba 45 be bd 95 bf 3d
       -0.12396052 -0.05354679 -0.19309245 0.09354732
0000c0 8b 40 0b 3d d2 32 c3 3e 00 a4 ba 3d f4 6a 7a 3c
       0.0339971 0.3812471 0.09113312 0.015284289
0000d0 e4 f5 af be 4b f0 98 3d 02 67 5c bd 76 fc 10 be
       -0.34367287 0.07467707 -0.053809173 -0.14158806
0000e0 a2 e9 a0 bd bd 11 25 3f a0 6c 00 3e fe cc 98 be
       -0.07857062 0.6448019 0.12541437 -0.29843897
0000f0 07 b2 b3 be 80 17 ef be 86 4b fa 3c ab 1c 0a 3e
       -0.35096762 -0.46697617 0.03055359 0.13487498
000100 1e f9 9d be cd 95 1c be fc 34 ab bd df 44 95 3a
       -0.30854124 -0.1529152 -0.08359715 0.0011388323
000110 82 d4 e2 be cd 0f d6 bd 4b c5 2d 3d 73 e0 f3 bd
       -0.44302756 -0.104522325 0.04242448 -0.11908045
000120 94 b6 ac bc ca 42 26 be 8c 73 67 be bf e2 90 be
       -0.021083154 -0.16236416 -0.22602671 -0.28297994
000130 f0 50 d7 3c a4 9c 8c be 2f 84 22 bd 41 bf a7 be
       0.026283711 -0.27463257 -0.03967684 -0.32763103
000140 46 18 a2 be e5 18 f6 3d 4e a5 2b 3d e4 4d 0c 3f
       -0.31659144 0.12016467 0.041905694 0.5480635
000150 c5 9c a0 3e 89 91 ad 3d ac c4 01 3e 12 9e 54 be
       0.31369606 0.08475024 0.1267268 -0.20763424
000160 32 d4 5d be 78 2c 6e 3f 5e a9 d8 3d e4 db ed bd
       -0.21662977 0.93036604 0.10579179 -0.116142064
000170 72 3a 7e be 3e a7 fd 3c 31 b1 aa be 80 f1 ed be
       -0.24826983 0.030963536 -0.3333831 -0.46473312
000180 5a 23 02 be 4f 4c 16 3f bf 01 10 3e 06 02 d5 be
       -0.12708798 0.5871019 0.14063166 -0.41603106
000190 6f 7b ae 3d f1 b4 8d be 1e ed 4a be c3 61 34 bd
       0.08519637 -0.2767711 -0.19817016 -0.044038545
0001a0 df 78 ea bd c7 e0 92 be e2 cc c8 bd ee 8b 2d 3e
       -0.114488356 -0.28687117 -0.09804703 0.1694791
0001b0 c0 b2 0f 3f 1f 78 3a be 3e c6 0d 3e a3 b7 b1 bd
       0.56132126 -0.18209885 0.13845155 -0.08677604
0001c0 06 ad a4 bc d1 07 a0 3c 8a ab 99 bd 9f 24 95 be
       -0.020102035 0.019534977 -0.075034216 -0.29129502
0001d0 31 aa fc bd 49 26 fd 3d 5c a3 50 3d 98 e6 b5 be
       -0.12337149 0.12360818 0.05093704 -0.35527492
0001e0 fd 12 50 be 8f a6 5a be 43 1a 59 3e b1 94 8a bb
       -0.20319743 -0.213526 0.21201424 -0.004229151
0001f0 3f a4 f7 be b2 44 49 3e 8d ec f3 bd ee 10 9f 3e
       -0.48367497 0.19655111 -0.11910353 0.31067604
000200 0a 3b d9 3d b7 a6 9c bb e3 14 dd bd c6 fa a6 be
       0.10606964 -0.004780616 -0.107949995 -0.326132
000210 ab 3a 3e be c6 c9 43 3e 2f 13 8d 3d 8c 53 5e 3e
       -0.18577068 0.19119939 0.068884246 0.21711558
000220 80 bc 8b 3e 76 38 32 bd 08 96 ad bd a2 cd 75 be
       0.27292252 -0.043510877 -0.08475882 -0.24004224
000230 3a f3 ef be bf 2e 52 be 6e 22 51 bd 56 1b aa be
       -0.46865255 -0.20525645 -0.051058225 -0.3322398
000240 8b e8 ab bc 70 35 1d bd 52 db 38 3e 0a ae 92 be
       -0.020984909 -0.03838104 0.18052414 -0.28648406
000250 a6 3b 2b bd 53 de 81 3d 30 85 3d be b4 f6 29 be
       -0.041804932 0.06341233 -0.18507838 -0.16598016
000260 3c 53 a7 bd 9f cb bc 3e ed a5 1b 3e 35 06 de bd
       -0.081701726 0.368741 0.15200014 -0.10841028
000270 21 1e 05 be 17 05 9a be d0 b1 09 bd 78 ce d0 bc
       -0.12999775 -0.30082008 -0.03361684 -0.025489077
000280 f9 70 eb 3d 5c fc 8d bc 9f b4 07 bc 80 34 5a be
       0.11496157 -0.017332248 -0.0082828095 -0.2130909
000290 d0 38 68 3d b2 e0 0f be ad b5 40 be a6 98 3d 3e
       0.056694806 -0.14050558 -0.18819304 0.18515262
0002a0 45 3c 38 be 88 12 90 3d 9a e7 0f 3f e4 aa 8c 3c
       -0.17991741 0.070347846 0.5621277 0.01717133
0002b0 ca 80 bb be 8b 06 3c 3f ac 90 9b bb af 4a 9d 3d
       -0.36621696 0.73447484 -0.004747471 0.076802604
0002c0 ed 79 b6 be 0f 6c b0 be 5e e7 ed 3f 44 5b 7e bd
       -0.35639897 -0.34457442 1.8586233 -0.062098756
0002d0 54 db 8f 3d bb ef 3b bd f4 7b 79 be 89 69 00 3d
       0.070242554 -0.04588292 -0.2436369 0.031350646
0002e0 9d 41 ea be 39 31 28 3e 49 ca 55 3d 93 72 03 be
       -0.45753184 0.16425027 0.052194867 -0.12836675
0002f0 5d 66 99 be e2 8b b5 be ee 4d 47 bd 7d f9 63 3e
       -0.2996091 -0.35458285 -0.048658304 0.22263141
000300 fa 5f 0c be 84 97 9a be d2 ad 42 bd 9c 51 35 3d
       -0.13708487 -0.30193722 -0.04752905 0.044267282
000310 9b de fe 3d 0f c2 fd 3d 3c 98 de bd c0 cd 04 be
       0.124448024 0.12390529 -0.1086888 -0.12969112
000320 af be 50 3d 05 0c f0 bd e1 a7 7e be 10 3c 80 be
       0.0509631 -0.117210425 -0.24868728 -0.25045824
000330 48 a8 15 be fa d9 b9 3d 28 94 95 bd 6e db 43 bd
       -0.14614975 0.09074779 -0.07303649 -0.047816686
000340 79 da 0d bb 17 c0 78 3e 57 a9 68 3d 74 b9 82 be
       -0.0021645112 0.24292026 0.05680212 -0.25532115
000350 33 c1 08 3e 3c 5e 19 bd 23 3e 13 3f 6e f9 30 be
       0.1335495 -0.037443385 0.5751669 -0.1728265
000360 88 fe d1 3d a1 5a fb bc a4 1c 09 3d ac 0f ba 3e
       0.10253626 -0.030682864 0.03347458 0.36340082
000370 09 35 f1 bd 83 8b 27 be 61 16 23 bd 14 42 65 3d
       -0.11777694 -0.16361813 -0.039816264 0.05597122
000380 bc 82 69 bc ce 45 7e 3d 9e d0 90 3e c6 90 0a be
       -0.014252361 0.06207829 0.28284162 -0.13531789
000390 1e f7 0e 3e 4b 1b 39 bd 67 96 80 be a4 d1 be bd
       0.13961455 -0.045192044 -0.25114748 -0.093173295
0003a0 a0 5f 74 be ef 28 ea bd 29 3a 5a be bb 5c 8f 3c
       -0.23864603 -0.11433589 -0.21311249 0.017500272
0003b0 54 da ca be 3a 96 2d be c9 71 2e be 0e 2c b4 be
       -0.39619696 -0.16951838 -0.17035593 -0.3518986
0003c0 0b a4 2b be 06 8b e4 3b ca c2 42 be ac 7e 87 bd
       -0.16761796 0.0069745807 -0.19019619 -0.066159576
0003d0 3c 16 6d 3e 85 d6 0f be 48 dd 10 be f6 11 b0 3d
       0.23153013 -0.14046676 -0.14146912 0.08597176
0003e0 1a 0f 8b 3e 1f 20 35 3e b0 fc 06 be ee c4 94 be
       0.2715996 0.17688034 -0.1318233 -0.29056495
0003f0 bc 16 09 b9 91 e7 61 be 8d 2c 05 be 87 3a 52 bc
       -0.00013073807 -0.22060992 -0.13005276 -0.012831337

linear2.weight f4 [3, 256]
000000 88 10 5c be 2c 05 06 3f 12 77 3a 3c 86 06 d7 be
       -0.21490681 0.5235164 0.011380928 -0.41997164
000010 4a c8 86 3e 2f 24 09 bf d2 04 0b 3d 91 78 f1 3e
       0.26324683 -0.53570837 0.033940144 0.47162297
000020 61 92 1a bc 67 0f 29 bd a1 82 d7 be 64 1c df 3e
       -0.0094343135 -0.041274454 -0.4209185 0.43576348
000030 c1 5b db be 78 66 93 3e 8c 03 46 be 20 cc 59 be
       -0.4284344 0.28789115 -0.1933729 -0.21269274
000040 a8 93 37 be 9d 81 ba 3e e8 78 df 3d f2 2f 86 bd
       -0.1792742 0.36427012 0.10911733 -0.065521136
000050 fc 86 d7 bc 3b 52 1c bf a4 1c b1 3e b1 52 94 3e
       -0.026309483 -0.61062974 0.34592164 0.2896934
000060 76 94 12 3e 52 b3 ec 3d d9 58 89 3e 1c 6e 2b be
       0.14314446 0.1155764 0.26825598 -0.16741222
000070 03 c6 91 be 3a 40 d3 bc 48 bb 24 be eb 81 0e bf
       -0.28471383 -0.025787462 -0.16087067 -0.5566699
000080 71 78 ca be 5d 35 bd 3e 0d 28 0a 3e b8 28 e9 be
       -0.39545015 0.36954775 0.1349184 -0.45538878
000090 42 e1 62 be 82 2a 22 bd a8 31 ae 3d d3 3d 00 bf
       -0.22156242 -0.03959132 0.08505565 -0.50094336
0000a0 e3 58 d9 be 98 e0 ae 3c 97 c8 8d 3e 01 9d ff bc
       -0.42450628 0.021347329 0.276921 -0.031202795
0000b0 16 60 98 3d c6 95 fc 3e 16 8a 5b bd d6 63 d9 3d
       0.07440202 0.49333018 -0.053598486 0.10614745
0000c0 ef 42 12 3c e4 74 3c 3e dd 74 41 3e 77 c7 36 be
       0.008927091 0.18403965 0.18892236 -0.17849527
0000d0 e8 79 8b bd 75 5a 66 3e 5c b3 0d 3c a3 4e 94 3e
       -0.06810361 0.22495444 0.00864872 0.28966245
0000e0 c0 e4 96 3e af 42 10 3f b6 77 b5 3e 2a 72 80 bc
       0.29471397 0.5635175 0.35442895 -0.015679438
0000f0 68 40 fa bc b1 41 4c be f8 db 48 bd 1f ba a4 3e
       -0.03054829 -0.19946934 -0.049037904 0.3217325
000100 50 dc e3 be 97 79 81 bd 9b 22 95 be e8 a8 9e bd
       -0.44504023 -0.063220195 -0.29127964 -0.0774706
000110 31 06 62 be 33 db 86 3e 03 3e eb be 1c c2 59 be
       -0.22072674 0.2633911 -0.4594575 -0.21265453
000120 b1 28 06 be e3 5f df bd 13 7c 61 3d d0 cc 17 bd
       -0.1310146 -0.10906961 0.055049967 -0.03706056
000130 66 f7 8c 3e 86 1c d3 bd 84 8b 80 bc 7b f3 c0 bc
       0.275325 -0.10308175 -0.015691526 -0.0235536
000140 43 42 bf bc 58 67 7d be 60 6d 05 3e 5b fa db 3e
       -0.023347026 -0.24746454 0.13030005 0.42964444
000150 55 83 4f 3e ff 65 93 be 65 4d b6 be ec 29 28 be
       0.20264943 -0.28788754 -0.35605922 -0.16422242
000160 de 6e 66 bc 87 0b 93 3e a1 9f bc 3e 2e 73 67 3e
       -0.014064519 0.28719732 0.36840537 0.22602531
000170 04 26 1d be 16 00 e6 be 8a 29 00 be 56 32 a1 3c
       -0.15346533 -0.4492194 -0.12515846 0.019677322
000180 4a 83 41 3d f8 ff f1 3e 3b 1f 94 3e 85 47 81 be
       0.047244348 0.472656 0.28930077 -0.25249878
000190 b7 63 a2 3e c5 f2 c4 be 46 75 86 be d7 e5 9d be
       0.317167 -0.38466468 -0.26261348 -0.30839416
0001a0 19 9c 49 3c f7 ba 97 be 2c c1 37 be 0a 6a 56 3e
       0.012305283 -0.2963483 -0.17944783 0.20938888
0001b0 17 0c 27 3e 89 97 4f bd a1 b0 db 3d 58 78 8a 3d
       0.16313206 -0.050681625 0.10727049 0.06761235
0001c0 ac ff ad 3e b1 ef 14 bd b8 0d f5 3b cb c8 c4 be
       0.33984125 -0.0363614 0.007478442 -0.38434443
0001d0 43 b0 9f 3e f8 67 aa be 22 e2 da 3e 1d 9a 9b bb
       0.31189165 -0.33282447 0.4275065 -0.0047485963
0001e0 5f 1e b8 bd 53 f5 a5 3d 75 39 15 3e 70 6e c4 3e
       -0.08990168 0.081034325 0.145727 0.38365507
0001f0 72 df 82 be 28 51 dd 3e 03 4b f0 bd 50 2d 19 3e
       -0.255611 0.4322598 -0.11733057 0.14958692
000200 25 6d c3 3d 68 10 9a be 8f da c5 3d 07 96 00 3d
       0.09542302 -0.30090642 0.09660827 0.031393077
000210 f4 46 c4 3e 7f ed df 3e 53 f3 73 3e 5d 97 10 3d
       0.38335383 0.43735883 0.2382329 0.0353006
000220 65 5e 2c 3e 63 85 6c be 22 d4 3c be 09 37 94 be
       0.16832884 -0.23097758 -0.18440297 -0.28948238
000230 5c 24 65 be 06 a0 bf 3b a9 34 a7 3d e7 18 1c be
       -0.22377151 0.0058479337 0.08164341 -0.15243874
000240 61 a3 82 3d 71 a6 2b bd 16 b9 b6 be 26 0e 62 bd
       0.06378818 -0.041906778 -0.35688084 -0.055189274
000250 e8 16 de bc 10 dc c9 3d 02 58 6f be 19 89 cc be
       -0.027110532 0.09856427 -0.23373416 -0.39948347
000260 35 4a 1e be a3 ee bb 3e 14 91 19 3e 31 bf de 3e
       -0.15457995 0.36705503 0.14996749 0.43505242
000270 a2 89 9f 3c b7 a7 1d be 05 ff 4e 3d ec 9c b5 bd
       0.019474808 -0.1539601 0.050536174 -0.08867821
000280 fd 2e a3 3c 3f 61 81 3e 39 09 dd bc b8 04 dd bd
       0.019919867 0.25269505 -0.026981937 -0.10791916
000290 09 50 28 bf ee 05 34 bc 53 d1 8b bd 4b a0 d0 3d
       -0.65747124 -0.010987742 -0.06827035 0.101868235
0002a0 d9 0e 28 be f2 73 9d be 94 fb 12 3e bc 84 a8 3d
       -0.16411914 -0.30752522 0.14353782 0.08228442
0002b0 16 73 96 be a4 ff e1 3e 46 2d 17 bc 19 7f ef 3d
       -0.2938468 0.4414035 -0.009227103 0.11694164
0002c0 40 13 4c be 2f 69 68 be d3 43 b3 3e d8 63 60 be
       -0.19929218 -0.22696374 0.35012683 -0.21913087
0002d0 5a 3d 7e 3d 54 b2 e2 bd 11 93 8c 3d e0 46 fe be
       0.06207023 -0.1106917 0.06863988 -0.49663448
0002e0 04 91 38 be 23 0a c3 3d 5d e5 6b 3d 9d b0 84 3e
       -0.18024069 0.09523418 0.057591785 0.25915995
0002f0 b2 ea 26 bd 21 7b db bd 74 40 aa be b5 23 f1 3d
       -0.040751167 -0.10716844 -0.332523 0.11774389
000300 dc cd de bd 6a 98 3b bd ae 66 ad 3e bf 07 e3 be
       -0.10879108 -0.04579965 0.338674 -0.44341847
000310 0a a1 b4 be 2d a6 e8 3e f2 c6 49 3d 81 3f ce be
       -0.35279113 0.45439282 0.049261995 -0.40282825
000320 31 13 d3 3e 32 38 b4 bd 64 25 9a be c2 96 92 bd
       0.4122558 -0.08799781 -0.30106652 -0.07157661
000330 79 e4 11 bc e1 b7 90 be e6 5e 4d 3e ec 78 a5 3c
       -0.00890457 -0.28265288 0.20055732 0.020199262
000340 03 69 72 3c 31 c8 62 3e 2a 44 89 bd c6 bc e6 bc
       0.014795545 0.2214668 -0.067024544 -0.028166186
000350 2e b0 b1 3e 8e c1 46 3c 4f 97 85 3e ae 2c f3 bd
       0.34704727 0.012131108 0.26092002 -0.11873756
000360 07 05 3d 3d 00 79 b3 3e fd d2 fd 3d 52 78 fd 3d
       0.046147373 0.35053253 0.123937584 0.12376465
000370 dd d9 a6 3e 44 bb 33 bf 70 fe c0 be 1a 0e d5 bc
       0.32588091 -0.7020762 -0.3769412 -0.0260077
000380 6f 4a 08 bf 18 1e 27 3d 38 8e 8f 3e bd 05 cb be
       -0.53238577 0.040800184 0.28038192 -0.39652815
000390 64 2e 9b 3e 7f 8a 27 bd ec dd 97 3c 23 f7 83 3e
       0.3030883 -0.040903565 0.018538438 0.25774488
0003a0 e6 77 9d 3b e5 f4 22 3e 45 1c e6 bd d3 e5 3f 3e
       0.004805553 0.15913732 -0.11235861 0.18740015
0003b0 5a 62 9b be 78 9a b4 3e 07 df 88 be b7 b2 05 bd
       -0.30348474 0.352741 -0.26732656 -0.03264114
0003c0 d0 89 dd 3e f0 93 98 3e 69 7c 0d be d9 35 89 3d
       0.43269205 0.29800367 -0.1381699 0.06699724
0003d0 53 56 83 3d c3 6f d6 be 45 84 25 bf c7 49 81 be
       0.064129494 -0.41882142 -0.6465495 -0.252516
0003e0 95 e2 70 3e 1c 7b 9e 3d 94 32 00 3d 5b da dd 3d
       0.23523934 0.07738325 0.031298235 0.108326636
0003f0 be 3a 63 3d 57 53 8e bd 34 7d 45 bd a2 e5 c9 3e
       0.055475943 -0.069494896 -0.048215106 0.39433008

linear2.bias f4 [3]
000000 3b c6 68 3e 89 ec e7 3d ff 90 26 3e
       0.22731869 0.113244124 0.16266249
